ios/sdk/IDScanMRZDetector.xcframework/ios-arm64_armv7/IDScanMRZDetector.framework/model.tflite (tflite, 276964 bytes, 47 tensors)

ExResModel/block0_conv/separable_conv2d/ReadVariableOp f4 [1, 3, 3, 1]
0	0xbe03aff3	-0.12860088
1	0xbe75eaf3	-0.24015407
2	0xbe6f6829	-0.23379578
3	0xbe9780da	-0.29590493
4	0xbf0504ec	-0.51960635
5	0xbe70aa97	-0.23502575
6	0xbe9afbb7	-0.30270168
7	0xbeeddfec	-0.464599
8	0xbe3a0301	-0.18165208

ExResModel/block0_conv/separable_conv2d/ReadVariableOp_1 f4 [1, 1, 1, 32]
0	0x3efd178e	0.49432033
1	0x3ecee62e	0.40409988
2	0x3f007987	0.50185436
3	0x3f04e596	0.5191282
4	0x3f019044	0.50610757
5	0x3ef5d0f9	0.48010996
6	0x3f01a195	0.5063718
7	0x3efea374	0.4973408
8	0xbef2a5df	-0.47392175
9	0xbf02fa52	-0.5116321
10	0x3ef8e027	0.48608515
11	0x3ef17f9f	0.4716768
12	0xbefe647b	-0.49686036
13	0x3f008108	0.50196886
14	0x3f0266c6	0.5093807
15	0x3ef18252	0.4716974
16	0xbeffa003	-0.49926767
17	0xbefba41f	-0.49148652
18	0xbf005d9f	-0.50142854
19	0xbf062858	-0.5240531
20	0xbf02f1e7	-0.51150364
21	0xbe9ed1a7	-0.31019327
22	0xbf0374a1	-0.51349837
23	0x3f0a2082	0.53955853
24	0x3ee84edf	0.45372674
25	0x3f03cf8a	0.51488554
26	0x3f01ac35	0.5065339
27	0xbf0051b5	-0.50124675
28	0xbefb3e65	-0.4907104
29	0x3ef30ca9	0.47470596
30	0x3ef3a675	0.47587934
31	0xbefe3e02	-0.49656683

ExResModel/block0_conv/separable_conv2d_bias f4 [32]
0	0xbf276b7f	-0.653984
1	0xbef67714	-0.48137724
2	0xbedbb732	-0.42913204
3	0xbec6ce87	-0.38829443
4	0xbf2635a5	-0.64925605
5	0xbf00079e	-0.5001162
6	0xbf08a607	-0.5337834
7	0xbee46a0d	-0.4461216
8	0x3f05b8b8	0.52234983
9	0x3f0728a3	0.5279638
10	0xbf06d6cb	-0.526715
11	0xbf230875	-0.6368478
12	0x3f22edcc	0.636441
13	0xbf0a66ac	-0.54062915
14	0xbec58bb5	-0.3858315
15	0xbeecee60	-0.46275616
16	0x3ed70014	0.41992247
17	0x3ef5576c	0.4791826
18	0x3ef57e25	0.47947803
19	0x3f12e7fc	0.5738523
20	0x3ec5a492	0.3860212
21	0x3eabc628	0.3354962
22	0x3f276e99	0.65403134
23	0xbf196732	-0.5992309
24	0xbeef7147	-0.4676611
25	0xbee20a78	-0.44148612
26	0xbf2736f3	-0.6531822
27	0x3ecd8326	0.4013912
28	0x3ec52c8e	0.38510555
29	0xbf104a0a	-0.56362975
30	0xbf064a73	-0.5245735
31	0x3f108d0b	0.56465214

ExResModel/block0_conv_act/Neg_neg f4 [13, 13, 32]
0	0xbb262d43	-0.0025356568
1	0x3d228b7b	0.0396838
2	0x3d234003	0.03985597
3	0x3bea6586	0.007153216
4	0xbb86b768	-0.004111219
5	0xbd3e1300	-0.04640484
6	0xbd81e11e	-0.06341766
7	0x3da8e77f	0.082472794
8	0xbd9bdc1a	-0.076103404
9	0x3ce82cc7	0.028341664
10	0x3d25f177	0.040513482
11	0xbdb8a41a	-0.09015675
12	0xbcde21ab	-0.027115664
13	0x3da2b292	0.07944216
14	0x3d7cfa9a	0.06176243
15	0xba134043	-0.0005617181
16	0xbd6615c4	-0.0561731
17	0xbe0480d5	-0.1293977
18	0x3dc690f8	0.09695619
19	0x3c4314d5	0.011906822
20	0x3b9aa021	0.004718796
21	0x3d214491	0.03937203
22	0x3e2fdc05	0.17173775
23	0xbd7d240f	-0.061801966
24	0x3c824eba	0.01590668
25	0xbda1efee	-0.07907091
26	0x3da62828	0.08113128
27	0x3bb9ca2a	0.005669852
28	0xbe39fb66	-0.18162307
29	0xbd96ec0d	-0.07369242
30	0xbcfc6999	-0.030812072
31	0xbe3493e3	-0.1763454
32	0x3cf2ac0a	0.02962305
33	0xbd344801	-0.04401398
34	0xbd970931	-0.073748
35	0x3b245ab9	0.002507849
36	0xbd8931cb	-0.066989504
37	0xbcebbaae	-0.02877554
38	0xbd6a7053	-0.057236027
39	0xbd25aee2	-0.040449984
40	0x3e33a9e5	0.17545278
41	0xbc6b5f65	-0.014366006
42	0xbd399fbe	-0.045318358
43	0xbd8243c5	-0.06360582
44	0x3e6698a9	0.22519173
45	0x3d0f9538	0.035054415
46	0x3c301dc3	0.010749283
47	0xbc323b56	-0.010878405
48	0x3e13075a	0.14358273
49	0x3df9dc5f	0.122002356
50	0xbe33721b	-0.17523997
51	0xbd9e4021	-0.07727075
52	0x3e095d35	0.13414462
53	0x3d12d3f1	0.035846654
54	0x3d8f4b8f	0.069968335
55	0x3cbb91b3	0.022896623
56	0x3d0dddf6	0.034635507
57	0xbd59e5b9	-0.053197596
58	0xbb6dd63f	-0.003629103
59	0x3dc65437	0.096840315
60	0xbcf9f7b9	-0.030513631
61	0xbb752c08	-0.0037410278
62	0x3d75a47d	0.05997132
63	0x3d71f7e2	0.05907429
64	0x3d733749	0.059378896
65	0xbe5f80e7	-0.21826516
66	0xbe411dd7	-0.18859039
67	0xbd6fb76e	-0.05852454
68	0xbd00419c	-0.03131257
69	0xbd74b0e0	-0.059738994
70	0x3de0c11a	0.10974331
71	0x3d8a8248	0.067631304
72	0x3db039cc	0.08604774
73	0x3e435496	0.19075236
74	0xb95d0544	-0.00021078164
75	0xbd8971e3	-0.06711175
76	0xbd493fa8	-0.049132973
77	0xbe15bdf3	-0.14623241
78	0xbcca4c56	-0.024694603
79	0x3e052861	0.13003685
80	0xbd880416	-0.06641404
81	0x3c297fc9	0.010345408
82	0x3e39575d	0.18099733
83	0x3cd5af12	0.026084457
84	0x3d35d33e	0.04439091
85	0xbe0f8191	-0.1401427
86	0x3dce42b7	0.100713186
87	0xbc80fbe9	-0.01574512
88	0x3d3d5810	0.04622656
89	0xbd542ded	-0.05180161
90	0x3d983d12	0.07433523
91	0xbe14b236	-0.14521107
92	0xbcd67fe6	-0.026184034
93	0xbda3c531	-0.07996596
94	0x3d978d06	0.07399945
95	0xbc14cd2f	-0.009082123
96	0xbccd2adf	-0.025044857
97	0xbde23a8d	-0.11046324
98	0x3d3544ef	0.044255193
99	0x3b8feafa	0.004392025
100	0xbd4b4324	-0.049624577
101	0x3d966227	0.0734294
102	0xbc0cf16e	-0.008602483
103	0xbc560571	-0.013062821
104	0xbe24a7e1	-0.16079666
105	0xbd2f3ff7	-0.04278561
106	0x3dbe4e11	0.09292234
107	0x3bb32af8	0.0054677688
108	0xbe3ad315	-0.18244584
109	0xbd7f4ea6	-0.062330864
110	0x3dfd3845	0.12364248
111	0x3e122017	0.14270054
112	0x3d808762	0.06275822
113	0x3dd49cb6	0.10381453
114	0xbc60f6b5	-0.013730695
115	0x3d4b5cd1	0.049649063
116	0x3d063e3e	0.032774203
117	0x3e680ada	0.2266039
118	0x3ce987b9	0.0285071
119	0x3c69c907	0.01426912
120	0x3da55717	0.08073252
121	0xbcc8933a	-0.024484266
122	0x3c5daf59	0.013530576
123	0xbe461aab	-0.1934611
124	0xbccce074	-0.025009371
125	0xbd832639	-0.06403775
126	0xbd19615e	-0.037446372
127	0xbc3e6606	-0.011621004
128	0x3debf46d	0.1152123
129	0xbd66fe06	-0.0563946
130	0xbe1c2200	-0.15247345
131	0x3df19c7b	0.117974244
132	0x3c323058	0.010875784
133	0x3d3b99e5	0.045801062
134	0x3d18df1f	0.03732216
135	0x3ce09159	0.027413057
136	0xbd8d5a34	-0.069019705
137	0xbe8f631f	-0.2800531
138	0x3dca495e	0.09877275
139	0x3deba999	0.115069576
140	0xbdeeb8f4	-0.11656371
141	0xbe58caf3	-0.21171169
142	0xbce48862	-0.027897064
143	0xbd8984b1	-0.06714762
144	0x3d179518	0.03700742
145	0x3cb67d97	0.022276683
146	0xbe1dffd9	-0.1542963
147	0x3dffff49	0.12499864
148	0xbd897b3c	-0.06712958
149	0xbd9aebc0	-0.07564497
150	0x3ceb0621	0.028689446
151	0xbcc83028	-0.024437025
152	0x3c5fe7e2	0.013666125
153	0xbe02ea79	-0.12784757
154	0x3da47c31	0.080315
155	0xbd70cd22	-0.05878938
156	0x3d6790c8	0.05653456
157	0x3df8cfde	0.121490225
158	0x3db5ef91	0.08883584
159	0xbbb188b8	-0.0054179095
160	0xbe1459ae	-0.14487335
161	0x3cf5eec7	0.030021084
162	0xbc130b74	-0.008974899
163	0x3c0ccc40	0.008593619
164	0xbcfd87ce	-0.030948546
165	0x3d7f853d	0.062382925
166	0xbba643a6	-0.0050739823
167	0xbd87fb76	-0.06639759
168	0x3c59ad8d	0.013286007
169	0xbdffaaa3	-0.12483718
170	0x3e7086cd	0.23488922
171	0xbe0d4761	-0.1379676
172	0xbe5e093f	-0.21683215
173	0xbdc27693	-0.094952725
174	0xbd9e7d5c	-0.07738754
175	0xbe5ee573	-0.21767215
176	0x3dc4944b	0.09598597
177	0xbe0f1264	-0.13971859
178	0x3dd7d8e0	0.105394125
179	0xbd04b4d2	-0.032399006
180	0x3d31976f	0.04335731
181	0x3ddfb8d5	0.10923926
182	0x3d4cd8b1	0.05001134
183	0x3e325299	0.17414321
184	0x3dd8a4cc	0.105783075
185	0x3e37094a	0.17874637
186	0x3d7300d9	0.05932698
187	0x3db09508	0.086221755
188	0xbda94928	-0.082659066
189	0x3dd8e2a1	0.10590101
190	0x3d0aba3f	0.033869024
191	0x3c8497fa	0.01618575
192	0x3e1ab698	0.15108716
193	0x3e909d29	0.28244904
194	0xbe06c468	-0.1316086
195	0xbde5c8af	-0.11219918
196	0x3d462b06	0.048380874
197	0x3e30c2bb	0.17261784
198	0x3eb7a566	0.35868376
199	0x3d540fe1	0.051772956
200	0xbd05b7d8	-0.03264603
201	0x3dfb2485	0.12262825
202	0x3e2c4bba	0.16825762
203	0xbdd5e517	-0.10444086
204	0x3d6c609a	0.057709314
205	0x3d90a34b	0.07062396
206	0xbd224def	-0.039625105
207	0x3e20c5c9	0.15700449
208	0xbe7375a9	-0.23775353
209	0x3d824339	0.06360478
210	0xbbeb856a	-0.007187535
211	0xbe2ad9c8	-0.1668464
212	0xbba42bd6	-0.0050101085
213	0xbc974027	-0.018463207
214	0x3d1c5530	0.03816718
215	0xbdf093f1	-0.117469676
216	0x3e0e43f6	0.13893113
217	0xbdd382de	-0.10327695
218	0x3edf4515	0.43607393
219	0xbe0937fb	-0.13400261
220	0xbda1db5e	-0.07903169
221	0x3dd2b6bb	0.10288759
222	0x3d8bcc0b	0.068260275
223	0xbe2f5863	-0.1712356
224	0x3e2d4ce2	0.1692386
225	0x3dcb1ba7	0.09917384
226	0x3e3341ad	0.17505522
227	0x3d97f48b	0.0741969
228	0xbd63e898	-0.05564174
229	0x3ddfcb7a	0.10927482
230	0x3dbdf0f4	0.09274474
231	0x3c43b9ce	0.011946155
232	0xbde854c5	-0.113442935
233	0x3d9adad1	0.07561267
234	0x3d923036	0.07138102
235	0xbcc2761c	-0.02373796
236	0xbd1aed89	-0.037824187
237	0xbd6f9bf7	-0.05849835
238	0x3e42b4a0	0.19014215
239	0x3e03b537	0.12862097
240	0x3c917c85	0.01775957
241	0xbc95f9d0	-0.018307596
242	0x3dc0499c	0.0938904
243	0x3e91a031	0.2844253
244	0xbe65bb1b	-0.22434656
245	0x3c13b6df	0.009015768
246	0x3ddc0158	0.10742444
247	0x3dbb620d	0.09149561
248	0xbc85b009	-0.016319292
249	0xbe23e252	-0.16004303
250	0x3dc2f90b	0.095201574
251	0xba581108	-0.0008242284
252	0xbe3c17b6	-0.1836842
253	0xbe1e0914	-0.1543315
254	0x3dfeea12	0.12446989
255	0xbd90e349	-0.07074601

ExResModel/block10_conv_residual0/Conv2D/ReadVariableOp f4 [40, 1, 1, 32]
0	0xbe95549e	-0.2916612
1	0xbf1e61ed	-0.6186817
2	0x3d80fc8d	0.0629817
3	0x3eaeaa43	0.34114274
4	0xbea7e958	-0.32795215
5	0xbbee5120	-0.0072728544
6	0x3e3ecd89	0.18633093
7	0xbc4d0d2a	-0.012515346
8	0x3c3e3cb4	0.011611152
9	0x3f15398a	0.5829092
10	0xbca76082	-0.02043176
11	0x3ebf924b	0.374163
12	0xbf1ccb83	-0.61248034
13	0x3f203323	0.6257803
14	0x3e28e023	0.16491751
15	0x3ee6af56	0.45055646
16	0xbf271128	-0.65260553
17	0x3eeb0b43	0.4590703
18	0xbf1b8d87	-0.6076283
19	0x3cc3c653	0.02389828
20	0x3e9c9d89	0.3058894
21	0xbe9e8b1a	-0.309655
22	0x3e1c142b	0.15242068
23	0x3eaecc41	0.34140208
24	0xbf3122f4	-0.6919396
25	0xbe9afd70	-0.30271482
26	0x3f20e67b	0.62851685
27	0xbed0541c	-0.4068917
28	0xbf4bd5ff	-0.7962341
29	0xbb0c1c26	-0.0021379082
30	0xbf25e820	-0.6480732
31	0x3ebd4032	0.3696304
32	0xbd91e8b7	-0.07124465
33	0x3dce240d	0.1006547
34	0x3cc335d3	0.023829376
35	0x3e82740a	0.25479156
36	0xbde79f24	-0.113096505
37	0x3cca8b50	0.024724633
38	0x3e85cff2	0.26135212
39	0x3dbada85	0.091237105
40	0xbe819ded	-0.253158
41	0xbe9d2de8	-0.30699086
42	0x3d95e881	0.07319737
43	0xbd59cdb7	-0.0531747
44	0x3e19a9bf	0.15006159
45	0x3d684502	0.056706436
46	0xbd6ad412	-0.057331152
47	0xbd5c3267	-0.053759005
48	0x3d25209c	0.0403143
49	0xbc10ca4f	-0.008837297
50	0xbe5d58fa	-0.21615973
51	0xbdf1f4b5	-0.11814252
52	0xbe4a5faf	-0.19763063
53	0x3cc6b652	0.024256859
54	0xbcf52160	-0.029923141
55	0x3e5a9211	0.21344782
56	0x3d071c65	0.032986064
57	0xbdba2f34	-0.090910345
58	0x3e3f4690	0.18679261
59	0xbd467862	-0.04845465
60	0xbe8b4307	-0.27199575
61	0x3e036368	0.12830889
62	0xbe3312c0	-0.17487621
63	0xbda6d2ee	-0.081457004
64	0xbe3882c5	-0.18018635
65	0xbe1c0e01	-0.15239717
66	0xbe58fa79	-0.21189298
67	0xbe5e4de0	-0.21709394
68	0xbe55fe26	-0.20897731
69	0xbe04e8e5	-0.12979467
70	0xbe330f25	-0.17486246
71	0xbe3c024b	-0.1836025
72	0xbe2cbcf1	-0.1686895
73	0x3d530558	0.051518768
74	0xbe365a1a	-0.17807809
75	0x3d895531	0.06705702
76	0xbd375241	-0.044756178
77	0x3cacd7cb	0.021098992
78	0xbdbe545b	-0.09293433
79	0xbe05c6ee	-0.13064167
80	0x3d5cb2f7	0.05388161
81	0x3d522360	0.051303267
82	0x3cadf96f	0.021237103
83	0xbe152cd7	-0.14567886
84	0x3e215226	0.15753993
85	0x3da0db1f	0.07854294
86	0xbe0fd87b	-0.14047424
87	0xbd443f72	-0.04791207
88	0xbd5842b5	-0.05279799
89	0xbe1bc40e	-0.15211508
90	0x3a80c7eb	0.0009825205
91	0x3dac3f55	0.08410517
92	0x3e0a2ec9	0.1349441
93	0xbe1c34c5	-0.15254505
94	0xbdde35a7	-0.10850077
95	0xbc73630b	-0.014855157
96	0x3e17be37	0.14818655
97	0xbe61fa5d	-0.22068162
98	0x3d1d7759	0.038443897
99	0x3e9f1f12	0.31078392
100	0x3d94ec1c	0.07271597
101	0x3acea4fb	0.0015765721
102	0x3e9a7f4d	0.30175248
103	0xbdecf80c	-0.11570749
104	0x3d6e1317	0.058123674
105	0xbe2babed	-0.16764803
106	0x3e3f2787	0.18667422
107	0xbe497528	-0.19673598
108	0xbdc198c0	-0.09452963
109	0x3e02c77b	0.12771408
110	0x3e542eee	0.20721027
111	0x3e877c44	0.26461995
112	0x3d96df9a	0.07366867
113	0xbe9578c0	-0.29193687
114	0x3d16b78a	0.03679613
115	0xbe8ed1ef	-0.27894542
116	0xbea107c0	-0.31451225
117	0x3c93f3ca	0.018060584
118	0x3dfea218	0.12433261
119	0xbe60a862	-0.21939233
120	0xbe37b5e8	-0.17940485
121	0x3e999232	0.2999435
122	0x3dc91988	0.09819323
123	0xbdab9ab1	-0.083791144
124	0xbe876ffc	-0.26452625
125	0xbcae1756	-0.021251362
126	0xbd29d393	-0.04146154
127	0x3e495410	0.19660974
128	0xbe2a9ade	-0.1666064
129	0xbe022048	-0.12707627
130	0xbd692c14	-0.0569268
131	0xbe6006e0	-0.21877623
132	0xbe5c9e8d	-0.21544857
133	0x3dbf226c	0.09332737
134	0xbe2c2a82	-0.1681309
135	0xbdeec3cb	-0.11658438
136	0xbdc54e0b	-0.09634026
137	0xbe44f768	-0.19235003
138	0x3cef21ba	0.029190887
139	0xbe0ebf3a	-0.13940135
140	0x3e1377bf	0.14401148
141	0xbdac9256	-0.08426349
142	0xbe4cb362	-0.19990304
143	0xbdfd4530	-0.12366712
144	0x3db54f8c	0.08853063
145	0x3e3daa19	0.18521918
146	0x3d23c846	0.039985918
147	0xbcb9b5d8	-0.022669718
148	0xbb4e9136	-0.0031519658
149	0xbdf17621	-0.117901094
150	0x3daa63fd	0.083198525
151	0xbe68ba7a	-0.22727385
152	0xbe6b5b97	-0.22984158
153	0xbe582358	-0.21107233
154	0xbe61a42f	-0.22035287
155	0x3e143032	0.1447151
156	0xbe0911bf	-0.13385676
157	0xbd3ac4b8	-0.045597762
158	0xbe1a9a6d	-0.15097971
159	0x3e12b6f1	0.14327599
160	0x3e0a9c88	0.13536274
161	0xbe562e49	-0.20916094
162	0xbe65eb07	-0.22452937
163	0x3e8b9d50	0.27268457
164	0x3ea05a84	0.31319058
165	0x3e24886b	0.16067664
166	0xbc08b71a	-0.008344436
167	0x3e836352	0.25661713
168	0xbcf538f8	-0.029934391
169	0xbec4b5f9	-0.38420084
170	0xbc5f8e10	-0.01364471
171	0xbdfd61e7	-0.12372189
172	0x3defa754	0.11701837
173	0xbcac5757	-0.02103774
174	0x3ea53d48	0.32273316
175	0x3da130fb	0.078706704
176	0x3cf80524	0.030275889
177	0xbe12550b	-0.14290254
178	0x3e649d0e	0.22325537
179	0xbd66e6f3	-0.056372594
180	0xbdd5974e	-0.1042925
181	0xbd186bae	-0.037212066
182	0xbe2a9f83	-0.16662411
183	0xbdf4a044	-0.11944631
184	0x3e08afc7	0.13348304
185	0x3e299a5a	0.16562787
186	0x3e800a4b	0.25007853
187	0xbe767ec8	-0.240718
188	0xbeac6735	-0.3367249
189	0xbe2c6e57	-0.16838966
190	0x3eaec861	0.34137252
191	0x3d30937f	0.043109413
192	0xbd3b59b2	-0.045739837
193	0xbe3b07da	-0.18264714
194	0x3e5e5e51	0.21715666
195	0xbeb9958a	-0.36246902
196	0xbe0da345	-0.13831814
197	0xbe976ec2	-0.2957669
198	0xbe7b0c84	-0.24516493
199	0xbdbce55b	-0.092234336
200	0xbd83cedd	-0.064359404
201	0xbe0ae89b	-0.13565294
202	0xbe922111	-0.28540853
203	0xbdf9e79c	-0.12202379
204	0x3e1572c2	0.14594558
205	0xbebd286c	-0.36944902
206	0xbe9fabc5	-0.31185737
207	0x3cdcb1e6	0.026940297
208	0x3e235d79	0.15953626
209	0x3d92a477	0.071602754
210	0xbe0a3104	-0.1349526
211	0x3e93ea9f	0.2888994
212	0x3e86025e	0.2617368
213	0xbd52afec	-0.051437303
214	0x3e2b9e3a	0.16759577
215	0x3dc6cba2	0.097068086
216	0x3e738c01	0.23783876
217	0x3e43c842	0.19119361
218	0xbd2ef521	-0.042714242
219	0x3dc1747d	0.094460465
220	0xbd4e1626	-0.05031409
221	0xbe500c04	-0.20317084
222	0x3e2afcdf	0.16698025
223	0xbd89ba6e	-0.06725012
224	0x3e519bcd	0.2046959
225	0x3e0fd1a9	0.14044823
226	0xbd252471	-0.040317956
227	0xbe2e8098	-0.17041242
228	0x3e5428f7	0.20718752
229	0x3e07751d	0.13228269
230	0xbd76a6d3	-0.06021769
231	0x3de34593	0.110972546
232	0x3d7f23dd	0.06229006
233	0x3dc59069	0.09646685
234	0xbe46cf6f	-0.19415067
235	0xbdb264bc	-0.0871062
236	0xbe8be31a	-0.27321702
237	0x3daca185	0.08429245
238	0x3e51a17c	0.20471758
239	0xbddf61c3	-0.109073184
240	0xbe65e27d	-0.2244968
241	0x3c31f821	0.010862381
242	0xbea55e5a	-0.32298547
243	0xbe8fdd25	-0.28098407
244	0xbe3e1712	-0.18563488
245	0x3d7a7939	0.061150763
246	0x3cc33302	0.023828033
247	0xbda38e6a	-0.07986148
248	0xbdad4896	-0.0846111
249	0x3e5e3e45	0.21703441
250	0xbcc0ddba	-0.023543227
251	0xbc9b7c2a	-0.018980104
252	0xbcd85e26	-0.026412081
253	0x3e180787	0.14846621
254	0xbde0aac8	-0.10970074
255	0xbe6d3ac4	-0.23166949

ExResModel/block10_conv_residual0/Conv2D_bias f4 [40]
0	0x3e6171d0	0.22016072
1	0x3d89c391	0.067267545
2	0x3ee89116	0.45423192
3	0xbde56092	-0.1120006
4	0x3f0beb63	0.54656047
5	0xbe7d996e	-0.2476556
6	0x3d880bde	0.066428885
7	0x3e38c1b5	0.18042643
8	0xbf32a452	-0.6978198
9	0xbf464f1b	-0.77464455
10	0xbda9707f	-0.0827341
11	0xbeab9bcb	-0.33517298
12	0xbf10121c	-0.5627763
13	0xbe799235	-0.2437218
14	0x3f46c0a0	0.7763767
15	0x3dc63d10	0.096796155
16	0x3ef4d894	0.47821486
17	0x3f421225	0.75808936
18	0x3e920ee2	0.2852698
19	0x3eb65ebe	0.35619158
20	0xbf36f63e	-0.71469486
21	0xbedb850b	-0.4287494
22	0xbea38c75	-0.31943098
23	0x3eeea709	0.46611813
24	0x3cfcd440	0.030862927
25	0xbed96164	-0.42457116
26	0x3c809ef3	0.015700793
27	0x3f5054a1	0.81379133
28	0x3dce70cf	0.1008011
29	0x3e8dbd86	0.27683657
30	0xbf7a58f9	-0.9779201
31	0x3e135a9c	0.14390033
32	0xbeec3870	-0.46136808
33	0x3ea545cc	0.32279813
34	0xbd93ff2a	-0.07226403
35	0xbe91190e	-0.28339428
36	0x3f069d42	0.52583706
37	0xbe879ab9	-0.26485232
38	0xbe993885	-0.29925933
39	0x3ec7a693	0.38994274

ExResModel/block10_noise_bn/FusedBatchNormV3_add_param f4 [32]
0	0xbf7aef87	-0.9802174
1	0xbf918108	-1.1367502
2	0xbf828b94	-1.0198846
3	0xbfa00ac0	-1.2503281
4	0xbf7e9b47	-0.99455684
5	0xbf9a87d5	-1.2072703
6	0xbfab3066	-1.3374145
7	0xbfa4f364	-1.2886777
8	0xbf17557e	-0.59114826
9	0xbf51f734	-0.8201783
10	0xbf95b2ca	-1.1695187
11	0xbf8f102f	-1.1176814
12	0xbf2d968a	-0.6780783
13	0xbf83a714	-1.0285363
14	0xbfa40270	-1.2813244
15	0xbf8865cb	-1.0656065
16	0xbefcf86d	-0.49408284
17	0xbf1f3049	-0.6218305
18	0xbf14f9c8	-0.58193636
19	0xbf16a97e	-0.58852375
20	0xbf0d76be	-0.5525931
21	0xbf10b435	-0.56524974
22	0xbf3388f8	-0.7013087
23	0xbfa0594e	-1.2527254
24	0xbf8a57bc	-1.0808024
25	0xbf95d639	-1.1706
26	0xbf8f5956	-1.1199138
27	0xbf25e9d7	-0.64809936
28	0xbf1dc35d	-0.61626226
29	0xbf6e8bd3	-0.93182105
30	0xbf81e94e	-1.0149324
31	0xbf33ebfd	-0.70281965

ExResModel/block10_noise_bn/FusedBatchNormV3_mul_0_param f4 [32]
0	0x40372197	2.8614252
1	0x405f936a	3.4933724
2	0x400d5112	2.2080731
3	0x4007624f	2.1153753
4	0x40312140	2.7676544
5	0x401dcdde	2.4656901
6	0x402d6eb5	2.709882
7	0x4028ab2d	2.6354477
8	0x3fdb7bf5	1.7147204
9	0x3fcc8ecf	1.5981082
10	0x40321aff	2.7828977
11	0x40481ecb	3.1268795
12	0x3fb622af	1.4229335
13	0x40225bb7	2.5368478
14	0x400e8051	2.2265818
15	0x4029ec96	2.655065
16	0x3fb85656	1.4401348
17	0x3fceef6e	1.6166818
18	0x3fd1f99a	1.6404297
19	0x3fb9d88f	1.4519213
20	0x3fcdb278	1.6070089
21	0x3fd4c94a	1.6623929
22	0x3faca394	1.348742
23	0x401f5bd8	2.4899807
24	0x4029d1f2	2.653439
25	0x400abc51	2.167744
26	0x403366ba	2.803145
27	0x3fc8867d	1.5666043
28	0x3fd32d72	1.6498244
29	0x402d5a85	2.7086499
30	0x401dfd49	2.4685843
31	0x3fcfa4d4	1.6222177

ExResModel/block11_conv1/separable_conv2d/ReadVariableOp f4 [1, 3, 3, 32]
0	0x3db2a3df	0.08722662
1	0x3d534518	0.051579565
2	0xbdeed105	-0.11660961
3	0xbd603499	-0.05473766
4	0x3e353411	0.17695643
5	0x3cb1d6f0	0.021708935
6	0xbd9f0cc9	-0.077661105
7	0x3db7a4cb	0.08966979
8	0xbe87cb28	-0.26522183
9	0x3e9053cd	0.28188935
10	0x3d7b06fb	0.061285954
11	0xbe0c8a6a	-0.13724676
12	0x3e5f3e34	0.21801072
13	0x3dc4efb9	0.09616036
14	0x3dec4bbf	0.11537885
15	0xbe3554cb	-0.17708127
16	0x3e20cd55	0.15703328
17	0xbdd2d1ae	-0.102938995
18	0x3d9c76f6	0.076398775
19	0xbd466e51	-0.04844505
20	0xbd1552f1	-0.036456052
21	0x3cc3d93d	0.023907298
22	0x3e27295a	0.16324368
23	0x3dc28cd0	0.09499514
24	0xbd1ece54	-0.03877099
25	0xbdfb83ef	-0.12281024
26	0x3d2ad034	0.041702464
27	0xbcaa3a73	-0.020779824
28	0x3d98a5d1	0.07453502
29	0x3e042273	0.12903766
30	0x3d5a2e07	0.05326655
31	0xbdad1e19	-0.08453006
32	0xbdbf2aa2	-0.093343034
33	0x3e096b97	0.13419949
34	0x3e15b790	0.14620805
35	0xbdfa9c8a	-0.12236889
36	0x3d1da418	0.03848657
37	0xbe18d7a5	-0.14926012
38	0xbd2562bb	-0.04037736
39	0x3d84daca	0.06487043
40	0xbca3cb39	-0.019994365
41	0x3d8c4edd	0.068509795
42	0xbde37cad	-0.111077644
43	0x3cc60aab	0.024175009
44	0xbd3bad1b	-0.045819383
45	0x3d02dd3d	0.03194927
46	0x3d54ae1c	0.051923856
47	0xbe498b09	-0.19681944
48	0xbdaaa945	-0.08333067
49	0x3deef50e	0.11667834
50	0xbe1668c0	-0.14688396
51	0x3d69a55e	0.057042472
52	0x3d7a6448	0.061130792
53	0xbe24ac94	-0.16081458
54	0xbdbc0912	-0.091814175
55	0x3e63e234	0.22254258
56	0xbe240b1c	-0.16019863
57	0x3dc6e44b	0.09711512
58	0x3dbd751e	0.09250854
59	0xbe6c88f5	-0.2309912
60	0xbd9aa80a	-0.07551582
61	0xbe0b02ba	-0.13575259
62	0xbdb5fe41	-0.08886386
63	0x3e0f6e81	0.14006998
64	0xbd0397b2	-0.03212709
65	0x3dbca3e7	0.092109494
66	0xbd106531	-0.035252754
67	0xbd917ce4	-0.07103899
68	0xbc0f365e	-0.0087409895
69	0x3cb19a19	0.021679925
70	0x3e725f13	0.2366908
71	0xbe69aa4d	-0.22818871
72	0x3d5cacc9	0.05387572
73	0x3c1326a9	0.008981385
74	0x3e259d3f	0.16173266
75	0x3e254bd1	0.16142203
76	0xbe212bfa	-0.15739432
77	0xbce734a7	-0.028223349
78	0x3e09b7c0	0.13449001
79	0x3d588c6f	0.052868303
80	0x3daaf3f2	0.0834731
81	0x3e2f716d	0.17133112
82	0xbdda790a	-0.106676176
83	0x3e155340	0.14582539
84	0xbde46678	-0.11152357
85	0x3d383c85	0.04497959
86	0xbd9279bb	-0.071521245
87	0x3cedeab1	0.029042574
88	0x3ca2f7d7	0.01989357
89	0xbc9645e6	-0.018343877
90	0x3d50c25c	0.050966606
91	0x3d7a6db6	0.061139785
92	0xbe3d124a	-0.18464008
93	0x3cde6ad9	0.027150558
94	0x3ddf4a7e	0.1090288
95	0x3d321155	0.04347356
96	0x3c099283	0.0083967475
97	0xbe5aa7f3	-0.2135313
98	0xbca3de63	-0.020003503
99	0x3e284575	0.16432746
100	0x3bb79216	0.0056021316
101	0x3ca1468d	0.019686962
102	0x3a77f3d4	0.00094586355
103	0xbe538323	-0.20655493
104	0x3e6ca631	0.23110272
105	0x3d6ab763	0.057303797
106	0x3e30d7ef	0.17269872
107	0xbc991784	-0.018687971
108	0x3dafd233	0.08585014
109	0x3d7bccca	0.0614746
110	0x3dee9ecc	0.11651382
111	0x3d8aa875	0.06770412
112	0xbe0d41d1	-0.13794638
113	0xbe334be6	-0.17509422
114	0xbe089fc1	-0.13342191
115	0xbcfc3b5c	-0.030790024
116	0xbe5c1e34	-0.21495897
117	0x3db56d51	0.08858741
118	0xbd423f8d	-0.047423888
119	0x3e00a412	0.12562588
120	0xbd4fdff0	-0.050750673
121	0xbd70bc85	-0.058773536
122	0xbd42b292	-0.04753358
123	0xbe0229e1	-0.12711288
124	0x3dabfbc8	0.08397633
125	0x3d90746e	0.07053457
126	0x3cfc7f7d	0.03082251
127	0xbd1728e3	-0.036904227
128	0x3d92d07f	0.07168674
129	0xbcdaebc9	-0.02672376
130	0xbd253dc7	-0.04034212
131	0xbd5b9143	-0.05360533
132	0xbd88cb01	-0.06679345
133	0x3d919115	0.0710775
134	0x3e04d1f2	0.12970713
135	0x3de08740	0.10963297
136	0x3d83cc6e	0.06435476
137	0x3dfb748c	0.12278089
138	0xbc5a21d1	-0.0133137265
139	0xbd020aee	-0.031748705
140	0xbd1c26c5	-0.03812291
141	0x3e18cf04	0.1492272
142	0x3e23122c	0.15924901
143	0x3e05d7b4	0.13070565
144	0xbc926cbe	-0.017874118
145	0xbe4798e0	-0.19491911
146	0xbe70ac0f	-0.23503135
147	0x3e613024	0.2199102
148	0x3db1eb25	0.086874284
149	0x3cb2b490	0.021814615
150	0xbd6d18dc	-0.057885036
151	0xbdd697e5	-0.1047819
152	0x3dd20ac1	0.102559574
153	0xbb3e8e04	-0.0029076347
154	0xbd39195b	-0.045190196
155	0x3c68e265	0.014214133
156	0x3cde479a	0.027133752
157	0xbd384feb	-0.04499809
158	0x3db1290d	0.08650408
159	0xbde0e699	-0.10981483
160	0xbe187ffc	-0.14892572
161	0x3c80f02c	0.015739523
162	0x3ced44fb	0.028963557
163	0x3c064367	0.008194781
164	0x3db8e6cf	0.09028398
165	0x3d9f4d56	0.077784225
166	0x3e27bf72	0.16381624
167	0x3db33220	0.08749795
168	0xbe353438	-0.17695701
169	0x3ca20353	0.019776976
170	0x3de80ad0	0.11330187
171	0xbd956cfc	-0.07296178
172	0xbd1b49d4	-0.037912205
173	0x3dd609be	0.10451077
174	0xbe24fa87	-0.16111194
175	0x3db6fd45	0.08935026
176	0x3ae3bb4e	0.0017374547
177	0xbc3908ac	-0.011293571
178	0x3e1395bb	0.14412586
179	0xbcde8a89	-0.027165668
180	0x3db30f5c	0.08743164
181	0xbab25ff6	-0.0013608921
182	0xbe69afd1	-0.22820975
183	0x3cfbf2bd	0.030755395
184	0x3daa0f68	0.0830372
185	0x3d9ebe76	0.07751171
186	0x3e2d18d6	0.16904005
187	0x3cae942d	0.02131089
188	0xbde48112	-0.11157431
189	0xbda6a411	-0.08136762
190	0xbb19591a	-0.0023399056
191	0xbe4a3640	-0.19747257
192	0x3dec87dc	0.115493506
193	0xbdc29d9f	-0.0950272
194	0xbdb25df7	-0.087093286
195	0x3e42225a	0.18958417
196	0xbe362037	-0.17785726
197	0xbdfd99bc	-0.12382838
198	0x3e03091b	0.12796442
199	0x3dcb9bf8	0.09941858
200	0x3e0dffda	0.13867131
201	0xbe975761	-0.29558852
202	0x3e0a1410	0.13484216
203	0xbe026e7e	-0.12737462
204	0xbe2152ea	-0.15754285
205	0x3d6e4119	0.05816755
206	0x3dda693a	0.106646016
207	0x3d19d7e1	0.037559394
208	0xbcb7ce14	-0.022437133
209	0xbd87dff2	-0.06634511
210	0x3dd77c21	0.105217226
211	0xbe6efd2a	-0.23338762
212	0x3e18cd23	0.14922003
213	0xbd5df043	-0.05418421
214	0xbdf4f77f	-0.11961269
215	0x3dd9d52f	0.10636365
216	0xbe0d92e5	-0.13825567
217	0xbd9a49d4	-0.07533613
218	0xbe0aa1de	-0.1353831
219	0xbdd821ed	-0.10553346
220	0x3d6e9aa2	0.058252938
221	0xbd411d6f	-0.04714721
222	0x3d0b0e24	0.033949032
223	0x3e3228a6	0.17398319
224	0xbddf207a	-0.10894866
225	0xbe122f22	-0.14275792
226	0xbd4b867c	-0.0496888
227	0xbd9a4185	-0.07532028
228	0x3ca3b213	0.019982373
229	0xbd32c481	-0.043644432
230	0xbe505519	-0.20344962
231	0x3e11cdcc	0.14238662
232	0x3c5bfd74	0.013427127
233	0xbd74fab1	-0.05980939
234	0xbe1c2af7	-0.15250765
235	0x3da22f7c	0.07919213
236	0xbdd1d22d	-0.10245166
237	0x3aa1e01a	0.0012350113
238	0xbe0b6014	-0.1361087
239	0x3e33d9f9	0.17563619
240	0xbdc6d456	-0.097084686
241	0xbea65e36	-0.32493752
242	0xbdeda07f	-0.11602878
243	0x3d2ccaee	0.042185716
244	0x3caebd5f	0.021330534
245	0x3ca64b25	0.020299504
246	0x3c024ec5	0.00795335
247	0x3da3fc82	0.080071464
248	0x3cf9fb5c	0.030515365
249	0x3e0c39a8	0.13693869
250	0xbe030ca9	-0.12797798
251	0x3e46ac2d	0.19401617
252	0x3d9ec292	0.07751955
253	0x3d702315	0.058627207
254	0xb938f224	-0.00017637812
255	0xbe0e6be8	-0.1390835

ExResModel/block11_conv1/separable_conv2d/ReadVariableOp_1 f4 [40, 1, 1, 32]
0	0xbe1256e0	-0.14290953
1	0x3d9f9ad1	0.07793201
2	0x3d9c3f8c	0.07629308
3	0x3e3f7682	0.18697551
4	0x3e6477f8	0.2231139
5	0xbde34a4d	-0.11098156
6	0x3f3840f1	0.7197409
7	0x3eb9e5a1	0.36308005
8	0xbf0956a8	-0.5364785
9	0x3eb1690d	0.3465046
10	0xbd83d7ea	-0.06437667
11	0x3b1e71a8	0.002417663
12	0x3e8e1c36	0.27755898
13	0x3daa2846	0.08308463
14	0x3b798070	0.003807094
15	0x3e9091a1	0.28236106
16	0x3f22c1aa	0.6357676
17	0x3e91c4a9	0.28470352
18	0x3f10c53f	0.56550974
19	0xbedc4392	-0.43020302
20	0xbf0ff98f	-0.5624017
21	0xbde1ce40	-0.11025667
22	0x3eb5a126	0.3547451
23	0xbdc920db	-0.0982072
24	0x3edecbc0	0.43514824
25	0x3d70d694	0.058798388
26	0xbdba2cc2	-0.09090568
27	0x3ef53b66	0.4789688
28	0xbe87eb5d	-0.26546755
29	0x3ea295c9	0.31754902
30	0x3edb2e55	0.42808786
31	0xbdd4ee84	-0.10397056
32	0x3e47e51f	0.19520997
33	0x3ee7e24a	0.45289832
34	0xbe72f320	-0.23725557
35	0xbdd4d339	-0.1039185
36	0x3ec62577	0.38700458
37	0x3f199286	0.599892
38	0xbeb9163d	-0.3614978
39	0xbdde8489	-0.10865123
40	0x3f04bd05	0.5185092
41	0xbe2aa621	-0.16664936
42	0xbe058f77	-0.13043009
43	0xbe0a5510	-0.13509011
44	0x3ecb32a5	0.39687076
45	0xbea1a082	-0.3156777
46	0xbebce9f2	-0.36897236
47	0x3e836914	0.25666106
48	0xbf249c16	-0.6430067
49	0xbe259de4	-0.16173512
50	0xbddd995b	-0.10820266
51	0xbeb6fe1a	-0.3574074
52	0x3e50dd48	0.20396912
53	0xbe3c161e	-0.18367812
54	0xbca015e9	-0.019541698
55	0x3e470459	0.19435252
56	0x3e9e3bd8	0.30905032
57	0xbe4af800	-0.19821167
58	0x3f06b29a	0.52616274
59	0xbef391b3	-0.47572097
60	0x3e947df0	0.29002333
61	0xbb1f682c	-0.0024323566
62	0xbe7ba8af	-0.24576066
63	0x3ee54080	0.44775772
64	0xbea89e71	-0.3293338
65	0x3e98b2c3	0.29823884
66	0xbd58ef91	-0.052962843
67	0x3e90aaf4	0.28255427
68	0x3d541545	0.051778097
69	0xbe06157e	-0.13094136
70	0x3ec1ffdc	0.37890518
71	0xbf116f6c	-0.5681064
72	0xbe4b9bce	-0.19883654
73	0x3d8fb8e2	0.070176855
74	0x3eead6e8	0.45867085
75	0x3f28f29d	0.659952
76	0x3dc09417	0.09403246
77	0x3ead57c1	0.33856013
78	0xbea20f7a	-0.31652433
79	0xbe093324	-0.13398415
80	0x3de4a3ff	0.11164092
81	0xbf485b77	-0.78264564
82	0x3d36f2a6	0.044665
83	0x3e93810e	0.28809398
84	0xbf02a1df	-0.51028246
85	0x3f52bfef	0.8232412
86	0xbe210b76	-0.15727028
87	0xbed6cf86	-0.41955203
88	0xbebe772d	-0.372003
89	0xbe73e68f	-0.2381842
90	0x3d380af5	0.044932324
91	0x3e7e936d	0.24860926
92	0x3e6abefa	0.22924414
93	0x3e49a155	0.1969045
94	0xbbedf1a1	-0.0072614704
95	0xbf1d6c7d	-0.61493665
96	0x3ec64732	0.38726193
97	0x3edf65ae	0.43632263
98	0xbdfb0cf7	-0.12258332
99	0x3e5690c3	0.2095366
100	0x3da32294	0.0796558
101	0xbe7c1354	-0.24616748
102	0x3de0958b	0.10966023
103	0xbe987475	-0.2977635
104	0xbf32bf5e	-0.69823253
105	0x3e998c71	0.2998996
106	0xbee4590d	-0.4459919
107	0x3e90f49c	0.28311622
108	0xbc6449d6	-0.0139336195
109	0xbee8d5b1	-0.45475534
110	0xbe1f21eb	-0.15540282
111	0x3ed36a3a	0.41291982
112	0xbd8ba46a	-0.06818469
113	0x3ee9423b	0.45558342
114	0x3ef5a894	0.47980177
115	0x3e466f50	0.193784
116	0xbed9e612	-0.42558342
117	0xbe90d463	-0.28287038
118	0xbccb4a6d	-0.024815762
119	0xbef5a9e9	-0.47981194
120	0x3f2e144b	0.67999715
121	0x3e56a951	0.20963027
122	0xbef2670b	-0.4734424
123	0xbe1ee5ef	-0.155174
124	0xbeebeb0c	-0.46077764
125	0x3eea7ace	0.45796818
126	0xbec47fb2	-0.38378674
127	0xbef259fd	-0.4733428
128	0x3ebbcdb6	0.36680382
129	0xbd835ab2	-0.06413783
130	0xbe937244	-0.28798115
131	0x3da6e7fb	0.081497155
132	0x3c317f9e	0.010833649
133	0xbeac9706	-0.33708972
134	0x3e866d14	0.26255095
135	0x3e4486eb	0.19192092
136	0xbe5ca34a	-0.21546665
137	0xbedb40c6	-0.42822856
138	0x3eb4d4e7	0.35318682
139	0xbedbbbfa	-0.42916852
140	0x3ed16b21	0.40902045
141	0xbe0e5a41	-0.13901617
142	0x3e8a8b85	0.2705957
143	0xbe869fda	-0.26293832
144	0x3e5ad177	0.21368967
145	0x3d764213	0.060121607
146	0x3f273f2c	0.6533077
147	0xbf1b6cd4	-0.60712934
148	0xbf16065c	-0.58603454
149	0x3e83dba0	0.25753498
150	0x3ead2ca0	0.3382311
151	0xbe909c3a	-0.2824419
152	0xbedc2d39	-0.43003252
153	0xbeef84ed	-0.46781102
154	0x3e8f7cfe	0.2802505
155	0xbd7169d9	-0.058938835
156	0xbc218247	-0.009857721
157	0x3db89053	0.09011903
158	0x3e234de7	0.15947686
159	0x3ccf862a	0.02533253
160	0x3eb6c23b	0.3569506
161	0x3e161639	0.14656915
162	0xbdced583	-0.10099318
163	0x3d9070aa	0.07052739
164	0x3eb62d14	0.35581267
165	0xbeee382b	-0.46527228
166	0x3ea1858f	0.3154721
167	0xbd76020f	-0.060060557
168	0x3d457510	0.048207343
169	0x3d878ad5	0.06618277
170	0x3e6dbf70	0.23217559
171	0xbe967319	-0.29384688
172	0x3ea06c0a	0.31332427
173	0x3e81a91d	0.25324336
174	0x3ecd0c34	0.40048373
175	0x3e990688	0.29887795
176	0xbed2dec8	-0.41185594
177	0x3ee3041a	0.44339067
178	0xbe824cce	-0.25449222
179	0x3e216187	0.1575986
180	0x3b8ab466	0.004232931
181	0xbdea5d70	-0.11443603
182	0x3dd38adf	0.10329222
183	0x3e804f6d	0.25060597
184	0xbf183e41	-0.5946999
185	0xbe67dc76	-0.22642693
186	0x3e298588	0.16554844
187	0xbe52d031	-0.20587231
188	0x3df188b1	0.1179365
189	0x3ec6f5f1	0.38859513
190	0x3f0f9b69	0.5609651
191	0x3edc7932	0.43061215
192	0xbf1301e4	-0.5742476
193	0x3ec8cdf3	0.39219627
194	0x3e3a32a8	0.18183386
195	0xbe42c8a6	-0.19021854
196	0xbded7635	-0.11594812
197	0xbef98d76	-0.4874074
198	0xbf0723af	-0.52788824
199	0x3f2f16e0	0.6839428
200	0x3f644a8d	0.89176255
201	0x3f1cbafe	0.6122283
202	0xbe9904b2	-0.29886395
203	0x3e1114d0	0.14168096
204	0x3e5c83e4	0.21534687
205	0x3eb6f8e2	0.35736758
206	0xbed79bbf	-0.42111012
207	0x3df0ca6c	0.11757359
208	0x3edacd4b	0.4273475
209	0xbe5dcac5	-0.21659382
210	0xbdeef0d4	-0.11667028
211	0x3f0e1cbb	0.5551259
212	0xbf8c7068	-1.0971804
213	0x3e585e3f	0.21129702
214	0x3f1bfdfe	0.60934436
215	0xbeb7bbf8	-0.35885596
216	0x3e78d98d	0.24301739
217	0x3f11f193	0.5700924
218	0xbe06f489	-0.1317922
219	0x3e3a2480	0.18177986
220	0xbe538833	-0.20657425
221	0xbf110fde	-0.56664836
222	0xbe29bda6	-0.16576251
223	0x3d74a91b	0.059731584
224	0xbea90cac	-0.3301748
225	0x3d95c49f	0.07312893
226	0x3eca1b17	0.39473793
227	0xbefcca6c	-0.49373186
228	0x3ee123f1	0.43972734
229	0xbedba2f4	-0.4289776
230	0xbe50d4eb	-0.20393722
231	0xbe64b8f2	-0.22336176
232	0x3e31c227	0.1735922
233	0xbecf645a	-0.4050625
234	0x3e4c24b4	0.19935876
235	0x3eae3c97	0.340306
236	0xbed4a89d	-0.41534892
237	0xbe87de7b	-0.26536927
238	0x3f176f63	0.5915434
239	0x3e9e8f27	0.30968592
240	0x3e252148	0.16125977
241	0x3ecffe36	0.40623635
242	0x3f250e5c	0.64475036
243	0xbf385028	-0.7199731
244	0x3edf54be	0.4361934
245	0xbdb1e72b	-0.0868667
246	0x3f111980	0.56679535
247	0xbe2dcdf1	-0.16973092
248	0x3e939db2	0.2883125
249	0xbdf8a68b	-0.121411406
250	0x3e752e6e	0.23943493
251	0x3eacd723	0.33757886
252	0x3f101236	0.5627779
253	0xbe469f6c	-0.19396752
254	0x3ead72c8	0.33876634
255	0xbbc34d6c	-0.005960157

ExResModel/block11_conv1/separable_conv2d/depthwise_bias f4 [32]
0	0x00000000	0.0
1	0x00000000	0.0
2	0x00000000	0.0
3	0x00000000	0.0
4	0x00000000	0.0
5	0x00000000	0.0
6	0x00000000	0.0
7	0x00000000	0.0
8	0x00000000	0.0
9	0x00000000	0.0
10	0x00000000	0.0
11	0x00000000	0.0
12	0x00000000	0.0
13	0x00000000	0.0
14	0x00000000	0.0
15	0x00000000	0.0
16	0x00000000	0.0
17	0x00000000	0.0
18	0x00000000	0.0
19	0x00000000	0.0
20	0x00000000	0.0
21	0x00000000	0.0
22	0x00000000	0.0
23	0x00000000	0.0
24	0x00000000	0.0
25	0x00000000	0.0
26	0x00000000	0.0
27	0x00000000	0.0
28	0x00000000	0.0
29	0x00000000	0.0
30	0x00000000	0.0
31	0x00000000	0.0

ExResModel/block11_conv1/separable_conv2d_bias f4 [40]
0	0x3db0a460	0.08625102
1	0xbd5efe1f	-0.054441568
2	0xbdad10a8	-0.084504426
3	0xbe75c656	-0.2400144
4	0x3d0b80fe	0.034058563
5	0x3d2ea7aa	0.042640366
6	0xbc0b84a0	-0.008515507
7	0xbc7ffd88	-0.015624411
8	0xbe4bc484	-0.19899184
9	0xbdc23665	-0.09483031
10	0xbe53e7ca	-0.2069389
11	0xbe1f2239	-0.15540399
12	0xbe0ef472	-0.13960436
13	0xbe58a44a	-0.21156421
14	0xbe7a893b	-0.24466412
15	0xbd051e75	-0.03249975
16	0xbdbe569f	-0.092938654
17	0xbd630244	-0.055422083
18	0xbe1ce1af	-0.15320466
19	0xbe12292c	-0.14273518
20	0xbcb2a736	-0.021808248
21	0xbd9e7168	-0.07736474
22	0xbdc45028	-0.09585601
23	0xbd37d179	-0.044877503
24	0xbd86ffb7	-0.065917425
25	0xbda56275	-0.0807542
26	0xbe071c21	-0.13194324
27	0xbd1b85a4	-0.037969247
28	0xbe1ed400	-0.15510559
29	0x3e195e04	0.1497727
30	0x3c62c2a0	0.0138403475
31	0xbe214630	-0.1574943
32	0xbde11b6c	-0.109915584
33	0xbe64f9e0	-0.22360945
34	0xbd2c342a	-0.042041935
35	0xbe1a5fda	-0.15075627
36	0xbdf5f4a6	-0.120095536
37	0x3c9cb84a	0.019130845
38	0xbe6cc540	-0.2312212
39	0xbde8bf2e	-0.1136459

ExResModel/block11_conv1_act/Neg_neg f4 [13, 13, 40]
0	0x3d0d4128	0.034485966
1	0xbd2a8c46	-0.04163768
2	0xbded0e11	-0.115749486
3	0xbd1583f8	-0.03650281
4	0xbdb89aa0	-0.090138674
5	0xbdd0816b	-0.101809345
6	0x3db5bf2f	0.08874356
7	0xbda77b11	-0.0817777
8	0xbe0f9bcf	-0.1402428
9	0xbc41edcc	-0.01183648
10	0x3c73bc5e	0.014876453
11	0x3cc75c2f	0.024335949
12	0x3dfbc39f	0.12293171
13	0x3d414301	0.04718304
14	0xbdf77c3a	-0.12084241
15	0xbb441f77	-0.002992598
16	0xbe034ab3	-0.12821464
17	0x3daea6cd	0.085279085
18	0x3dc45649	0.0958677
19	0xbe331ad8	-0.17490709
20	0x3be35645	0.0069377744
21	0xbc810207	-0.015748037
22	0x3e0ea536	0.1393021
23	0xbdc36eeb	-0.0954264
24	0xbdd2facf	-0.10301744
25	0xbdb25fe8	-0.08709699
26	0xbddab0a0	-0.1067822
27	0x3d697504	0.05699636
28	0x3d5f4a61	0.054514293
29	0x3b348fb1	0.0027551467
30	0x3dfbfd91	0.12304223
31	0xbe93fe2a	-0.2890485
32	0xbdd74137	-0.105104856
33	0x3d62fbf6	0.05541607
34	0x3d93b104	0.072114974
35	0x3d38a598	0.045079798
36	0xbe2c6cec	-0.16838425
37	0xbe5e50ed	-0.21710558
38	0xbcbb36b0	-0.022853225
39	0x3dc38371	0.09546555
40	0xbdcc4830	-0.09974706
41	0xbb62baa6	-0.0034596114
42	0x3d93c768	0.07215768
43	0xbd768f3c	-0.060195193
44	0xbd8549ef	-0.06508242
45	0xbe34a3b6	-0.17640576
46	0xbd7a52e9	-0.061114226
47	0x3dd5e194	0.10443416
48	0xbe6e7bc5	-0.23289402
49	0x3da79206	0.08182149
50	0xbe4747af	-0.19460939
51	0xbc8d906c	-0.01728078
52	0x3d6b704e	0.05748015
53	0x3e0797a1	0.13241436
54	0x3cdc31a0	0.026879132
55	0xbe20ea9f	-0.15714501
56	0x3d5d8c33	0.054088783
57	0x3e2494d7	0.16072403
58	0xbe1594d3	-0.14607553
59	0xbd0d9b41	-0.03457189
60	0x3d93de7b	0.07220169
61	0x3e512b05	0.20426567
62	0x3dfb6c34	0.122764975
63	0xbd0d9f4d	-0.03457575
64	0x3e250c0f	0.16117881
65	0xbd3a58cb	-0.045494836
66	0x3e042ab4	0.12906915
67	0x3a31b9d5	0.0006779705
68	0xbe805abd	-0.25069228
69	0x3e00e30c	0.12586612
70	0xbdf26608	-0.11835867
71	0xbc0434ae	-0.0080692
72	0xbe0b015b	-0.13574736
73	0x3df6987b	0.12040802
74	0x3dfd6974	0.12373629
75	0xbdd95e46	-0.10613684
76	0xbdccaa7a	-0.09993453
77	0xbdc00160	-0.09375262
78	0xbde40735	-0.11134187
79	0x3b8fee26	0.004392403
80	0xbdd64012	-0.10461439
81	0x3da09fd5	0.078429855
82	0xbd7fb894	-0.062431887
83	0xbdbf753b	-0.09348532
84	0xbd3465e3	-0.04404248
85	0xbe13b21e	-0.14423415
86	0xbe6669ba	-0.22501269
87	0x3e24aadd	0.16080804
88	0xbb0af14c	-0.0021200953
89	0x3cee4ff4	0.029090859
90	0xbd8b7cf8	-0.06810945
91	0xbe13c1b6	-0.14429364
92	0xbe31e25f	-0.1737151
93	0xbd44b6ab	-0.04802577
94	0x3ce44c1f	0.027868329
95	0x3beab5ab	0.00716277
96	0x3e10703f	0.14105318
97	0x3d979d2d	0.07403026
98	0xbda3783d	-0.07981918
99	0xbe568e18	-0.20952642
100	0x3e1a1fde	0.15051219
101	0x3d4cdd09	0.050015483
102	0x3e5ff881	0.2187214
103	0x3e002d89	0.1251737
104	0x3db38f3f	0.087675564
105	0xbe1fbe53	-0.15599947
106	0x3c13ee1e	0.0090289395
107	0xbc9e8c12	-0.0193539
108	0xbd24ca04	-0.04023172
109	0x3d43fb5b	0.047847133
110	0x3da6565b	0.0812194
111	0xbd9a2a93	-0.07527652
112	0x3e5b9c2d	0.21446295
113	0xbe345627	-0.1761099
114	0x3dd9be6e	0.10632025
115	0x3e4a85b8	0.19777572
116	0x3dbf0cf7	0.09328645
117	0x3dacf090	0.08444321
118	0x3e4032de	0.18769404
119	0x3dec54f9	0.11539645
120	0x3cef7f91	0.029235633
121	0x3ddd554e	0.10807286
122	0x3cbfcba6	0.023412537
123	0xbe668735	-0.22512515
124	0xbe1417c8	-0.14462197
125	0xbc2f0cd5	-0.010684212
126	0x3e3d2856	0.18472418
127	0xbdf1bb1d	-0.11803267
128	0x3c72d650	0.014821604
129	0xbc074896	-0.008257052
130	0xbe616c9f	-0.22014092
131	0xbcc3fad5	-0.023923317
132	0x3c5f7ef0	0.013641104
133	0xbe108b73	-0.14115696
134	0x3cb6a066	0.02229328
135	0x3c9dbdbc	0.019255511
136	0x3e1b149b	0.15144579
137	0xbe167bd0	-0.14695668
138	0xbd4492bc	-0.0479915
139	0x3d2b234d	0.041781712
140	0xbdc65410	-0.096840024
141	0xbcc86c8b	-0.02446582
142	0xbc111476	-0.008854976
143	0xbd822488	-0.06354624
144	0x3d9d3bb7	0.07677405
145	0xbe3bd9b6	-0.18344769
146	0xbd113dfe	-0.03545951
147	0xbd837b9d	-0.06420062
148	0xbe2da275	-0.16956504
149	0xbdaced8f	-0.08443748
150	0xbe2aec25	-0.16691644
151	0xbd4c74c5	-0.049916048
152	0xbe140985	-0.14456756
153	0xbdfd4780	-0.12367153
154	0xbd0301b0	-0.03198403
155	0xbc9590d4	-0.018257536
156	0x3e0c4634	0.13698655
157	0x3e013916	0.12619433
158	0xbd16766a	-0.036734022
159	0xbe22f937	-0.1591538
160	0x3d404a4e	0.046945862
161	0xbbb489b4	-0.0055095796
162	0xbe120c58	-0.14262521
163	0xbd543a56	-0.051813446
164	0x3d5e5c00	0.054286957
165	0x3e16d1c2	0.14728454
166	0x3da397f4	0.07987967
167	0xbc9d2db1	-0.019186826
168	0x3df045c9	0.117320605
169	0xbddd65b6	-0.108104154
170	0xbc82495e	-0.015904125
171	0xbc80fa76	-0.01574443
172	0x3d7b0d44	0.061291948
173	0xbe8d430f	-0.27590224
174	0xbd98d00e	-0.07461558
175	0xbd46ace0	-0.04850471
176	0x3d94571d	0.07243178
177	0x3d3d0350	0.046145737
178	0x3e42514e	0.18976328
179	0xbd36b91b	-0.044610124
180	0xbd67c38d	-0.056582976
181	0xbe2f2475	-0.17103751
182	0x3e27c00f	0.16381858
183	0xbe358d70	-0.17729735
184	0x3e2cef52	0.16888168
185	0xbd09b6f0	-0.03362173
186	0x3df881bc	0.1213412
187	0xbd2d3d74	-0.042294934
188	0xbe93e388	-0.2888453
189	0xbe97b525	-0.2963039
190	0x3d91c6c6	0.07117991
191	0x3dbd7c8a	0.092522696
192	0xbe23ac48	-0.15983689
193	0xbe118c63	-0.1421371
194	0x3d393eaa	0.045225777
195	0xbe37ad20	-0.17937136
196	0xbe0f4cf3	-0.13994198
197	0x3c47f5c7	0.012204594
198	0xbd499421	-0.049213532
199	0xbd15be7d	-0.036558617
200	0xbc4c2589	-0.012460121
201	0xba1e8631	-0.0006047218
202	0x3e07b4b2	0.13252524
203	0xbc848db5	-0.016180852
204	0xbd80f7d7	-0.06297272
205	0xbdd053c4	-0.10172227
206	0x3e47f053	0.1952527
207	0xbcf014b8	-0.029306754
208	0x3d7ccbd3	0.06171782
209	0xbd799062	-0.06092871
210	0xbd0cd33e	-0.034381144
211	0xbe218959	-0.1577505
212	0x3d81041d	0.06299613
213	0x3d11f894	0.035637453
214	0x3a9c1aab	0.0011909803
215	0xbdfb5c8f	-0.122735135
216	0xbd628c08	-0.055309325
217	0x3e0dab47	0.13834868
218	0x3e40f139	0.18842019
219	0xbd76e7aa	-0.060279526
220	0xb9b957d6	-0.00035351393
221	0x3decbf2c	0.11559901
222	0x3dd903e9	0.10596449
223	0xbd60d549	-0.054890905
224	0xbb9b4334	-0.004738236
225	0xbddb1a1f	-0.106983416
226	0x3e34800e	0.17626974
227	0xbba0b9b9	-0.0049049524
228	0x3bfd8aa5	0.007737475
229	0x3dfee230	0.124454856
230	0x3d4a7e89	0.04943708
231	0xbe4fa185	-0.20276459
232	0x3c9af229	0.0189143
233	0xbdb2a100	-0.087221146
234	0xbde30b42	-0.11086132
235	0x3b285034	0.002568257
236	0xbe2bae4e	-0.1676571
237	0x3dfca0d7	0.12335365
238	0x3dfafa3c	0.1225476
239	0x3dfd1815	0.12358109
240	0xbe9b407c	-0.30322635
241	0x3da9e42d	0.08295474
242	0x3dae2311	0.08502782
243	0x3e4db0fe	0.20087048
244	0xbd2a262a	-0.041540302
245	0xbd45d88c	-0.04830222
246	0xbbd79f51	-0.0065802713
247	0xbd70f66e	-0.058828764
248	0x3c376787	0.011194116
249	0x3e0b217c	0.13586992
250	0xbdb8baf4	-0.090200335
251	0xbe77519c	-0.24152225
252	0x3e014bc2	0.12626556
253	0x3c8c1196	0.01709823
254	0x3d87aabb	0.06624361
255	0xbdebbbb2	-0.115104094

ExResModel/block11_conv2/separable_conv2d/ReadVariableOp f4 [1, 3, 3, 40]
0	0x3c9315b6	0.017954689
1	0x3e00fb39	0.12595834
2	0xbe34ca78	-0.1765536
3	0x3d7b1f49	0.061309133
4	0x3d02707d	0.03184556
5	0xbdb64569	-0.08899958
6	0xbdf3a5be	-0.11896847
7	0xbe321a92	-0.17392948
8	0xbe20a878	-0.15689266
9	0x3cf1d5e0	0.029520929
10	0xbbfe9ba7	-0.00777002
11	0xbd173833	-0.03691883
12	0xbe75b2df	-0.23994015
13	0xbe5f901f	-0.21832322
14	0xbd4c1abe	-0.04983019
15	0x3e6f2de4	0.2335735
16	0xbd9175d5	-0.07102553
17	0xbcee9a60	-0.029126346
18	0x3e7de22b	0.24793307
19	0xbdf9f2da	-0.122045234
20	0x3bc84d33	0.0061127185
21	0x3e3a4c68	0.18193209
22	0xbe02d4c8	-0.12776482
23	0xbe05d5fb	-0.13069908
24	0x3dedfef0	0.11620891
25	0x3d7a42c4	0.06109883
26	0x3e76d5f1	0.2410505
27	0x3d613bf0	0.0549888
28	0xbe5a6165	-0.21326216
29	0x3e1cad7f	0.15300559
30	0xbd505154	-0.05085881
31	0x3b11fd91	0.0022276381
32	0x3cb489f7	0.022038443
33	0x3e24fd36	0.16112217
34	0xbd4493b8	-0.047992438
35	0xbd97d1e5	-0.07413081
36	0x3e18660b	0.14882676
37	0x3dcaa5a9	0.098948784
38	0xbd2a77ea	-0.041618265
39	0x3dce1194	0.100619465
40	0xbc62e20e	-0.013847841
41	0xbda3ddea	-0.08001311
42	0x3e8844e1	0.2661505
43	0x3af49be8	0.0018662186
44	0x3d02b3fe	0.031909935
45	0xbcfa03c1	-0.030519368
46	0xbe1d1faa	-0.1534411
47	0x3d287880	0.041130543
48	0xbd8fcb07	-0.07021146
49	0xbe544d61	-0.20732643
50	0x3da1eeb4	0.07906857
51	0xbdfcd93e	-0.12346123
52	0xbe44c963	-0.19217448
53	0xbdea792a	-0.114488915
54	0x3c78f459	0.015194976
55	0x3dba3038	0.09091228
56	0xbda9208b	-0.0825816
57	0xbe3472ce	-0.1762192
58	0x3dd226d1	0.1026131
59	0xbe2a3243	-0.16620736
60	0x3dd355bb	0.10319086
61	0xbd97f1a5	-0.07419137
62	0xbe5a83c2	-0.21339324
63	0xbe0899ae	-0.13339874
64	0x3e0dcfb6	0.13848767
65	0x3e269bd2	0.16270378
66	0xbd43b9b7	-0.047784533
67	0x3e2260ea	0.15857282
68	0x3d2ae581	0.04172278
69	0xbd6a8a00	-0.057260513
70	0x3dc449cf	0.0958439
71	0xbe2b4936	-0.16727147
72	0x3ceea701	0.029132368
73	0xbd82683f	-0.063675396
74	0x3d903c20	0.07042718
75	0x3e218594	0.15773612
76	0xbdbb296f	-0.09138762
77	0x3e0e9717	0.13924824
78	0x3dff0ec0	0.12453985
79	0x3d6d39ee	0.057916574
80	0x3ddd61ca	0.108096674
81	0xbe0c045d	-0.1367354
82	0x3d861484	0.06546882
83	0x3e5b254b	0.21400945
84	0xbd60657c	-0.054784283
85	0x3db3e987	0.08784776
86	0x3e67cf2a	0.2263762
87	0xbd958e42	-0.07302524
88	0x3c793519	0.015210413
89	0xbe42c343	-0.19019799
90	0xbe12842d	-0.14308234
91	0xbcbd3518	-0.023096606
92	0x3def0b95	0.11672131
93	0xbdb97258	-0.090550125
94	0x3d986aeb	0.07442268
95	0x3c80d25e	0.01572531
96	0xbda3e636	-0.080028936
97	0xbdadc94f	-0.08485662
98	0xbe53d8ec	-0.20688218
99	0xbd65a935	-0.05606957
100	0x3e307b73	0.17234592
101	0xbe1bf692	-0.15230778
102	0xbd86e02f	-0.065857284
103	0xbdb60ac4	-0.08888772
104	0xbd823647	-0.06358009
105	0x3e0a5ff9	0.13513173
106	0xbcf680c1	-0.030090692
107	0xbd55cf02	-0.05219937
108	0xbe1b5a71	-0.1517122
109	0xbca6ecb2	-0.020376537
110	0x3dd5cfe7	0.10440045
111	0x3e213f7c	0.15746874
112	0xbdb55981	-0.08854962
113	0x3dddfa37	0.1083874
114	0xbc2437ed	-0.010023099
115	0xbd480800	-0.048835754
116	0xbe2bc643	-0.1677485
117	0x3da75503	0.081705116
118	0xbaae0fd1	-0.001327986
119	0x3c511ef3	0.0127637265
120	0xbbc91465	-0.0061364644
121	0x3d205f4b	0.03915338
122	0x3cc54a7e	0.024083372
123	0x3d9252de	0.07144712
124	0x3df6cdc1	0.12050963
125	0x3dffd042	0.12490894
126	0xbcef5227	-0.029213978
127	0x3d8c6087	0.06854349
128	0xbe0f28f6	-0.13980469
129	0xbe054370	-0.13014007
130	0xbd51c56a	-0.05121366
131	0xbe555946	-0.20834836
132	0x3bdf4710	0.006813891
133	0xbe21b5c6	-0.15791997
134	0xbd846eb7	-0.0646643
135	0x3ded8b9c	0.11598894
136	0xbdb0c88a	-0.08632
137	0x3d8bf3cd	0.06833611
138	0xbd864bf7	-0.06557458
139	0x3d872e27	0.066006
140	0xbe4562d3	-0.1927598
141	0x3e4dedd0	0.2011025
142	0x3d848eb7	0.06472533
143	0xbdfc0f49	-0.12307603
144	0x3e2977dd	0.1654963
145	0xbca2c65e	-0.01986998
146	0xbc8bac40	-0.017049909
147	0x3d3e069a	0.046393014
148	0xbe856993	-0.2605711
149	0x3d44d2ac	0.048052475
150	0xbe56e179	-0.20984448
151	0xbbb1b9d1	-0.0054237624
152	0x3de2ac55	0.11068026
153	0x3e029fe9	0.12756313
154	0xbda840ba	-0.082154706
155	0x3d6afb9d	0.057368863
156	0xbcf8c6cb	-0.03036823
157	0xbd6dbc14	-0.058040693
158	0x3dd6dcf3	0.104913615
159	0xbdbc541c	-0.0919573
160	0xbd72ed00	-0.059308052
161	0x3cc16e4d	0.023612166
162	0xbdf3803a	-0.11889692
163	0x3e37d762	0.17953256
164	0xbd1c9f52	-0.038237877
165	0x3de29b34	0.11064759
166	0xbd956af2	-0.07295789
167	0x3c5a2c0b	0.013316165
168	0xbadf0fff	-0.0017018317
169	0x3d18ec29	0.037334595
170	0x3d881bc1	0.06645919
171	0xbe6827eb	-0.22671477
172	0x3cf79a4b	0.03022494
173	0xbe1a0ebd	-0.15044685
174	0xbc838d9e	-0.01605874
175	0x3d68f4c1	0.05687404
176	0xbcc04238	-0.023469076
177	0x3cce52e0	0.025186002
178	0x3db01e12	0.085994855
179	0x3d8a0238	0.067387044
180	0xbd954350	-0.072882295
181	0x3d5d8533	0.054082107
182	0xbd8adc17	-0.0678026
183	0xbd31bc60	-0.04339254
184	0x3d57b9fb	0.0526676
185	0xbe1de631	-0.15419842
186	0x3cc7d5c1	0.024393918
187	0xbc738ded	-0.014865381
188	0xbe428b5d	-0.18998475
189	0x3e2c6c2a	0.16838136
190	0xbb2955d3	-0.0025838509
191	0xbd835d88	-0.06414324
192	0xbe3d80be	-0.18506142
193	0xbd9e768f	-0.07737457
194	0xbdee24ce	-0.11628114
195	0xbdae656e	-0.0851544
196	0x3db6a45e	0.08918069
197	0xbe4a526b	-0.19758002
198	0xbd8b8e84	-0.06814292
199	0xbdd84bc2	-0.10561325
200	0xbd77ecc6	-0.06052854
201	0x3e1d9b18	0.15391195
202	0x3db1751b	0.08664914
203	0x3e04df10	0.12975717
204	0x3d69fc1f	0.057125207
205	0x3e3397a8	0.17538321
206	0x3e4ba406	0.19886789
207	0x3e62d87a	0.22152892
208	0xbddd3d3f	-0.108026974
209	0xbde73a2e	-0.11290394
210	0x3e1a1167	0.15045701
211	0xbe241c8c	-0.16026515
212	0xbe18aa4f	-0.14908718
213	0xbdc0baf5	-0.09410659
214	0xbdb201df	-0.08691763
215	0xbdbbbe00	-0.09167099
216	0x3ceb0d4b	0.028692862
217	0xbdb73250	-0.08945143
218	0xbd95210b	-0.07281693
219	0x3dd0b75a	0.101912215
220	0x3d3cbaa4	0.046076432
221	0xbe2500db	-0.16113608
222	0x3e07ba97	0.13254772
223	0x3d121c6c	0.035671636
224	0xbd25f1f1	-0.040513936
225	0x3da19ad7	0.078908615
226	0xbddc4357	-0.107550316
227	0xbdd1638a	-0.10224064
228	0xbc91d8a7	-0.017803503
229	0xbe05add9	-0.13054599
230	0xbe048d11	-0.12944438
231	0xbd7604d8	-0.060063213
232	0x3ca794fc	0.020456783
233	0xbd00473e	-0.03131794
234	0xbe3e86e5	-0.18606146
235	0x3dce7bc0	0.10082197
236	0x3d8bed38	0.06832355
237	0xbe0e72c0	-0.13910961
238	0x3ded9c86	0.1160212
239	0x3d56c5ab	0.052434605
240	0xbe1cb356	-0.15302786
241	0xbe8d70e8	-0.27625203
242	0x3e117e02	0.14208224
243	0x3cf3abab	0.029744944
244	0x3e0229cb	0.12711255
245	0x3d36ea12	0.04465682
246	0x3cc48d7a	0.023993243
247	0xbdfcb309	-0.12338836
248	0x3e341265	0.17585142
249	0x3db37cce	0.08764039
250	0x3be12687	0.006871048
251	0x3c1f95a0	0.009740263
252	0x3c99c544	0.018770821
253	0x3dc3b722	0.09556414
254	0x3e4c38c0	0.19943523
255	0xbdc45df4	-0.09588233
