ios/sdk/BarcodeScanner.xcframework/ios-arm64_armv7/BarcodeScanner.framework/MRZBundle.bundle/mrz_190307_022802.tflite (tflite, 312608 bytes, 50 tensors)

ExResModel/block0_conv/separable_conv2d_bias f4 [32]
00000000: df46 dc3e 7a72 64bf 04fc 9c3f 228f 753e
00000010: c876 583d 6193 01bf 6c2a 42bf 174b 073f
00000020: 6bdc ae3f 9a9d ca3e 1948 913f 2321 ad3f
00000030: d41f a03f 53d6 0ebf 880b 92bd 1216 f13f
00000040: 08ac 623f c3c3 f43d 3fe9 d63f a011 e43d
00000050: 4cab 103e 5114 8bbe 24ba f23e 7618 133e
00000060: 6215 c63f d059 df3f 8b88 b7be 546d 25bf
00000070: c017 53bc 36fe c5bd 825e 883f 196d d53e
0.4302282 -0.8923718 1.2264409 0.23980382 0.052847654 -0.5061551 -0.7584598 0.52848953
1.3661016 0.39573365 1.1350127 1.3525738 1.2509713 -0.5579578 -0.07131106 1.883486
0.8854375 0.11951401 1.6789931 0.11136174 0.14127845 -0.27163938 0.4740764 0.143648
1.5475276 1.7449284 -0.35846362 -0.64619946 -0.01288408 -0.096676275 1.0653841 0.41684797

ExResModel/block0_conv_act/Neg_neg f4 [13, 13, 32]
00000000: 34a0 9dbd f56c eabc 9e2c 8dbe 4ed6 93bd
00000010: f521 a0bb 3a74 ab3d 2664 f13d 0f31 5e3c
00000020: 1f16 00bd 2b94 bb3d 353c d03e 9d7c bfbd
00000030: d4ed 01bf 539b 1e3f eaf5 a0bc e24f 4e3d
00000040: babc b83d 70c5 d73e 68e9 f03d 11a1 873b
00000050: 6678 02bc c929 52bb ed2a b0bb 9fa8 82bb
00000060: b610 c5bd a6da 953d a2f0 03bd 2e28 433c
00000070: a93c 8fbc 946d 333b 9d21 b3be 504d b13d
00000080: 3f0d 69be 83aa 9fbc d2fa e1bc de93 353d
00000090: e3d2 b73c 1fc0 0f3e b23d a43d 9589 5d3e
000000a0: a823 c7bd 9d21 9a3c c528 68be 355d 05be
000000b0: 0f8a 39be 81fc a1be 1987 863d 34b1 a73d
000000c0: 2826 d4be 91fe c6ba 402a 6d3e 5664 5dbb
000000d0: 941f 753d 3abb 283d 9f13 efbb ecf9 963b
000000e0: 7d92 e1bd 6678 053b fde8 8fbd a44f 003c
000000f0: 207c 4e3c a841 293d 8955 b1be 1569 c0bd
00000100: 9914 dfbe e281 4dbe d08a d33d 9719 253e
00000110: 94aa 2ebd 8d52 3a3e 4da6 80bd 71b9 d4bd
00000120: 7da0 6b3e cf47 ae3c d293 acbe 66bc abbe
00000130: 139a 9d3d 7418 97be 541e 0dbc 91ce a73d
00000140: 78b8 cabd 62e9 543e 7063 c2bc f6f2 f93d
00000150: f309 76bd 564f 6bbe 8505 ebbb 5a52 5e3d
00000160: 5d7f 34bd 69f0 773d 48be 01bf 622c 75be
00000170: 55df ecbd 02b7 5d3e f42e f8bd dc22 9fbd
00000180: 522a 873e f0f0 9abd a66d febd 128f c43e
00000190: 3bb0 8dbd f79e 9cbe a844 be3d 5e24 f5bd
000001a0: 09ac 063e 4cd9 3c3e dd5d 49bd 9268 05be
000001b0: 93b1 203d 92fb 2d3d fda8 313d adb0 18be
000001c0: 1c5a ecbd 877c 863d 71bc 06bd 7fba f13d
000001d0: 1c81 76be 9f30 9bbe c721 75be a72c bfbc
000001e0: 655c 803e 60da afbc ce9a 3ebe 09dd 4a3d
000001f0: 984d 6e3d 63b3 b33d 9541 213e 42b9 d5bd
00000200: 1e21 f43d 24ba b0bd 8d42 26be 66b6 a93e
00000210: 40de b5bc cdf4 5f3e 4676 be3d 901a a7be
00000220: 2911 543e 4587 463c 31d1 963e 3a4c b7be
00000230: fb79 b1bd 8ca0 df3e 53cf a53d fb9d 5cbe
00000240: 4c3a 1a3e dfc3 91bd 8a78 b7bd 5623 053f
00000250: ee56 04be 97a2 bdbc 4d43 8b3e 5e80 bdbe
00000260: 656f 803d 80e5 96be ef09 5abe 5e28 28be
00000270: b5e2 1dbd 3aea 823e 9a8e e5bd fda6 4cbd
00000280: de69 5e3d c4dc 8bbd 7d36 b4bd c9e2 1e3e
00000290: 621a 82be 6697 efbd 3c34 803d 28ed 99be
000002a0: 8b34 08bc 25bb 1b3e 0c64 73be 4a0d c23c
000002b0: 3bda 4bbe efe6 e93d 2a1f 1e3d d83b 653c
000002c0: 21e3 a2be 3486 633d 65f7 fcbd 55e2 e53e
000002d0: 44e4 c0be 1d94 c53d be5c d73e c3ba cebd
000002e0: bb0b e53d dcfd b5bc 4bae a3bd 9bc0 31bf
000002f0: 6255 523e 8856 af3e 6109 ca3d e484 943e
00000300: 5309 2dbe 2e6f c0bd 3af2 0bbd d705 8b3e
00000310: adca b2bd 1e3c 04be 14cf 4e3d 9359 37be
00000320: f343 4d3e 610e 55be 811d 2f3e e2e5 08be
00000330: 8b51 1ebe 04c6 143e 4e53 633e 77e4 3fbe
00000340: cacf 90be 332d 563e 9ecb dd3b 1e45 e43e
00000350: 19ee f73c 88b7 b13e 6342 6a3e ef6e 003e
00000360: f1f9 15bd 7f66 863e 444f 503e d2a9 14bf
00000370: df3f 26bd f720 a3be 1cae 803c b132 afbe
00000380: e964 013f 54d5 bdbd e082 ddbd 2594 753e
00000390: f13c 08be 098a 183d f2cb 9abd fde3 3fbd
000003a0: e0c6 70be cbe2 6bbd 0a41 a2be 9cae 29be
000003b0: 9455 0abe 7c02 883d 1487 2a3d 31dd 203e
000003c0: 3f24 42bd adbf 01be 7c9b 743c 6866 953d
000003d0: 8554 1ebf 5ec6 b5bd bd15 5b3e e532 b8be
000003e0: 2ecc 71bd 1886 62bd e5b6 933e 0823 3fbe
000003f0: 7301 c4be 9053 883d b589 a9bd b816 933d
-0.07696572 -0.028616408 -0.27573103 -0.0721861 -0.0048868605 0.08371778 0.1178668 0.013561501
-0.031271096 0.0915912 0.40670934 -0.0934994 -0.5075352 0.61955756 -0.019648511 0.05036915
0.09020372 0.4214282 0.11763269 0.0041390737 -0.007963276 -0.0032068363 -0.005376211 -0.0039873864
-0.09622328 0.073170945 -0.032211907 0.011911435 -0.01748498 0.0027378546 -0.34986582 0.08657324
-0.22758959 -0.019490486 -0.02758542 0.04433047 0.022439426 0.14038132 0.0801958 0.21634515
-0.09723598 0.018814856 -0.22671802 -0.13023837 -0.18119071 -0.31637958 0.065687366 0.08188096
-0.4143536 -0.0015182068 0.23160648 -0.0033781729 0.05984457 0.04119418 -0.00729604 0.0046074297
-0.110142685 0.0020365953 -0.07026861 0.007831488 0.012602836 0.04132238 -0.3463557 -0.09395043
-0.43570402 -0.20069078 0.10329211 0.16123043 -0.042643145 0.18195553 -0.06281719 -0.10386933
0.2301044 0.021274475 -0.33706528 -0.33542174 0.07695403 -0.29510844 -0.008613188 0.08193696
-0.09898466 0.20792153 -0.023729056 0.12204544 -0.060068082 -0.22979483 -0.007172289 0.054277755
-0.044066776 0.060532007 -0.5068097 -0.23942712 -0.11566035 0.21651843 -0.121183306 -0.07770321
0.26399475 -0.075654864 -0.124232575 0.38390404 -0.06918379 -0.3059003 0.09290439 -0.11969827
0.13151564 0.18442267 -0.04916178 -0.13028172 0.039231848 0.042476244 0.04337405 -0.14911146
-0.115406245 0.065667205 -0.032894555 0.118031494 -0.24072689 -0.30310532 -0.23938666 -0.023336722
0.2507049 -0.021466434 -0.18613741 0.0495272 0.058179468 0.0877445 0.15747674 -0.10435726
0.11920379 -0.086292535 -0.16236325 0.3314697 -0.022200704 0.21870728 0.092999026 -0.32637453
0.20709671 0.012117212 0.29456475 -0.35800344 -0.08665844 0.43677175 0.080961846 -0.2154464
0.15061301 -0.071174376 -0.08958538 0.52007043 -0.12923786 -0.023148818 0.27199784 -0.37012
0.06271247 -0.2947197 -0.21292852 -0.16421649 -0.038546283 0.25569326 -0.1120884 -0.04996394
0.05430018 -0.06829217 -0.08799455 0.15516199 -0.25410753 -0.11698799 0.06259963 -0.30063748
-0.0083133085 0.15208109 -0.23768634 0.023687977 -0.19907467 0.11421 0.03860394 0.013991319
-0.3181391 0.055547908 -0.12351874 0.4489924 -0.37674153 0.09647391 0.42062944 -0.10094216
0.11183878 -0.022215776 -0.07992228 -0.6943452 0.20540383 0.34245706 0.0986507 0.29007638
-0.16898088 -0.09396206 -0.034166552 0.27152893 -0.087300636 -0.12913558 0.050490454 -0.17905264
0.20045452 -0.20806266 0.17101099 -0.13368943 -0.15460794 0.14528662 0.22199747 -0.18739496
-0.2828353 0.2091568 0.006768658 0.44583982 0.030264901 0.34710336 0.22876887 0.12542318
-0.036615316 0.26250073 0.20342737 -0.58071625 -0.040588256 -0.31861088 0.015708022 -0.34218362
0.505446 -0.09269205 -0.10815978 0.23982294 -0.13304497 0.037241016 -0.07558431 -0.046848286
-0.23513365 -0.057589334 -0.31690246 -0.16570514 -0.13509208 0.06641099 0.041632727 0.15709378
-0.04739785 -0.12670775 0.0149296485 0.07294923 -0.61847717 -0.08875726 0.21395011 -0.3597633
-0.05903261 -0.055303663 0.28850475 -0.18665707 -0.38282356 0.06656563 -0.08278219 0.07182068

ExResModel/block10_conv_residual0/Conv2D_bias f4 [40]
00000000: d60b 1e3d 80bd fe3e caad 1e3f 9c11 f63d
00000010: fe6f 603f c974 13bf ae0a 0a3f c7c1 7dbe
00000020: 28b9 14bf d843 c33c 0255 663e 56a7 85be
00000030: 9444 eebe a50c b83e 5d49 463f 9ee6 103f
00000040: 9795 c33d 798c 2a3f 0c16 9a3e c071 ebbd
00000050: 7d85 e23e 0445 163d f08a 6e3e 6606 133f
00000060: c473 f7be 9ec9 283f d320 90be 4f45 b0be
00000070: 2c76 193f 9d25 edbe fca0 403e 550a 023f
00000080: 1f9d 843e 5492 053f a815 603d 8081 3c3d
00000090: 23a8 063e e8c2 ee3e e25a 523f 580e c83e
0.038585506 0.49753952 0.6198393 0.120150775 0.87670887 -0.57600075 0.53922546 -0.24780951
-0.58095026 0.023836061 0.22493365 -0.2610423 -0.46536696 0.35947147 0.77455693 0.56601894
0.095500164 0.66620594 0.30094945 -0.114963055 0.44242468 0.036686912 0.23295188 0.5743164
-0.4833051 0.65932643 -0.28150043 -0.34427878 0.5994594 -0.4631776 0.1881141 0.50797015
0.25901124 0.52176404 0.054708153 0.04602194 0.13150077 0.46633077 0.82169926 0.39073443

ExResModel/block10_noise_bn/FusedBatchNorm_add_param f4 [32]
00000000: eed5 cebe eaf5 0dc0 4e80 94bf 489a 95be
00000010: 5344 ccbf e80e b7bf 26da 4f3e e1b3 69bf
00000020: c68b d1be 617a 063e ae08 fdbe a2e5 32bf
00000030: 1826 3cbf 68b0 be3e 758d 05c0 da2d 69bf
00000040: 87c5 c9be 9aad 80be a9b2 7ebf 9bef 21c0
00000050: 20c1 bebf 647c d8bf 0c2a a0bf 8a8f 78be
00000060: 2c5a dfbe 5128 1ebf c160 b6bf ce17 ccbf
00000070: f112 1dc0 0bc0 aebe fc2d 08bf 54d4 e9c0
-0.4039759 -2.2181344 -1.1601655 -0.2921927 -1.5958351 -1.4301424 0.20298061 -0.912901
-0.4092695 0.13132621 -0.49420685 -0.6988164 -0.73495626 0.37243962 -2.0867589 -0.9108559
-0.39408514 -0.25132447 -0.99491364 -2.5302494 -1.4902687 -1.6912961 -1.2512832 -0.24273506
-0.43623483 -0.6178027 -1.4248277 -1.5944765 -2.454281 -0.34130892 -0.53195167 -7.307169

ExResModel/block10_noise_bn/FusedBatchNorm_mul_0_param f4 [32]
00000000: 372e 2140 8e6a 4340 7532 df3f d924 0740
00000010: b53e 8040 d961 f23f 8525 cd3f d393 e43f
00000020: 0306 9c3f 8a0d 2abf ad52 a83f 0354 763f
00000030: 3646 253f 6c1b 333f fd5a 7240 0dd5 a83f
00000040: d389 633f 8dde fd3f 9411 ed3f 965e 2840
00000050: b7c7 f23f f08f 1c40 c9ec a13f d982 a43f
00000060: 61d3 8b3f c214 9c3f c062 8040 4ab4 ef3f
00000070: b656 4740 7e7a 0e40 332a c03f 22ab 9241
2.5184457 3.0533786 1.7437273 2.111624 4.0076547 1.8936111 1.6027075 1.7857612
1.2189335 -0.6642691 1.3150231 0.9622194 0.6456026 0.6996372 3.7868035 1.3190018
0.8888218 1.9833542 1.852099 2.630773 1.8967198 2.4462852 1.2650386 1.2852432
1.0923883 1.2193835 4.0120544 1.8726895 3.1146674 2.2262263 1.5012878 18.33356

ExResModel/block11_conv1/separable_conv2d/depthwise_bias f4 [32]
00000000: 0000 0000 0000 0000 0000 0000 0000 0000
00000010: 0000 0000 0000 0000 0000 0000 0000 0000
00000020: 0000 0000 0000 0000 0000 0000 0000 0000
00000030: 0000 0000 0000 0000 0000 0000 0000 0000
00000040: 0000 0000 0000 0000 0000 0000 0000 0000
00000050: 0000 0000 0000 0000 0000 0000 0000 0000
00000060: 0000 0000 0000 0000 0000 0000 0000 0000
00000070: 0000 0000 0000 0000 0000 0000 0000 0000
0.0 0.0 0.0 0.0 0.0 0.0 0.0 0.0
0.0 0.0 0.0 0.0 0.0 0.0 0.0 0.0
0.0 0.0 0.0 0.0 0.0 0.0 0.0 0.0
0.0 0.0 0.0 0.0 0.0 0.0 0.0 0.0

ExResModel/block11_conv1/separable_conv2d_bias f4 [40]
00000000: 19b6 153f da2b 153f 12fe 4b3e 83f6 2c3f
00000010: f4fb ab3d a74a cbbd 0837 78be 1e75 b93e
00000020: 284b 1e3f c7c9 063f fcdc 4fbf ecc8 3e3e
00000030: e2ce f03e f5a4 f83d ebba 7d3e e6de 3e3f
00000040: 265f b43e 0367 403e 9085 ec3c 595d d7be
00000050: 1a53 803e 9137 c6be 0ea1 8f3e a892 28bd
00000060: 6a47 f8be 5605 9cbe 38a1 40bd 1863 053f
00000070: 0405 0dbe ecc2 323e f61e 84be c3d5 03bf
00000080: db0d 26bf 0500 803f 834b dc3e 96d8 6b3e
00000090: 8be5 a0be f667 29bd 1c0f 4abf 4088 003f
0.58480984 0.5827004 0.19921139 0.6756365 0.083976656 -0.09926348 -0.24239743 0.36222166
0.6183343 0.5265164 -0.8119657 0.18631333 0.4703284 0.12140838 0.24778335 0.74558866
0.35228842 0.18789296 0.028872281 -0.42063406 0.250634 -0.3871427 0.28052562 -0.041155487
-0.48491985 -0.3047282 -0.04702875 0.5210433 -0.13771445 0.1745717 -0.2580487 -0.5149805
-0.6486489 1.0000006 0.4302636 0.2303184 -0.31425127 -0.04135891 -0.78929305 0.502079

ExResModel/block11_conv1_act/Neg_neg f4 [13, 13, 40]
00000000: 1c9e 0dbc ed91 db3c 6ffe 1c3d b3d2 ed3d
00000010: 31ca fcbe 055f 1dbe 5b7e e43d 2163 afbe
00000020: 105c ca3d e78b afbc a217 bfbc dffe f1bd
00000030: 1535 043e e454 3b3d 8400 d3bb f959 6c3b
00000040: 9602 223e f9cf dabe 5b4f 82be 74dd 8ebe
00000050: ba10 863d d667 b13c 7a0c 35be a8ea 71be
00000060: 79e8 06bd ccad 9ebe 9ed9 27be 7ced e93d
00000070: eb8a 263e 3f56 e93d 2a2a 1d3f ee35 e73d
00000080: b2f6 c6be 3e9d a1bd fb33 bd3c 37c1 12be
00000090: 5553 f23e 0df8 f43a b133 333e 32a2 323c
000000a0: f194 acbe b580 02ba d6cb 1f3e 8b2a 9bbd
000000b0: cb5c 09bf e952 f83d 7117 6a3c 4ef5 813e
000000c0: 38cd 953d 9a1c 4fbe 6eb8 b63d 3aff 17be
000000d0: d675 d1bd 4f01 10be c4dd 37bd 60b6 0fbc
000000e0: a21d 383d d217 2bbe 4ada afbd 04ca 0b3e
000000f0: 5ffd 833e 9a5f dbbe b961 0d3e 76e1 68be
00000100: 116b 0f3e 9f5d 373d e4f2 97bd 9b81 6fbe
00000110: 54f3 483e c0aa 45be 046b ed3e 7b2a 5e3b
00000120: bd62 0e3e ba16 42be 35d5 123e c8d2 373e
00000130: 1252 ca3e 4af2 133d 1798 2c3e f63f f7bd
00000140: d9f4 31be f556 f0bc b6b2 9b3d 90cf 253e
00000150: 7deb 15be e72d 0bbe d163 bb3e 47d2 84be
00000160: ff8c 9ebd 62ab 11bc 6f05 8cbe a455 46bd
00000170: 6d00 60be 1124 54be 55a3 07be 051b 1d3e
00000180: 72fc 293e 4e6f 47be a112 4abd 01b0 4e3e
00000190: 9456 c63e ac83 b5be be4f b23e e235 8cbe
000001a0: b562 443e 3714 27be eaaf 20bd cbc5 dfbe
000001b0: f02c 37bc d88e 96be 0477 9fbb 622f 153e
000001c0: fe7d 903e 48ae a1be 40b2 c0bd 584d 26be
000001d0: 603f 2bbc cdfc 51bc ddab d9be 86af 143c
000001e0: 8fa2 823e ef86 1dbc 67c1 4ebe 8502 66bd
000001f0: 962a 853c 6936 b1be f871 233e 32e0 813e
00000200: 8d40 6a3e c4d2 1dbe b59b 803e f845 cabe
00000210: 257a bc3b 375e dabb d6f1 2cbe 416a 7c3e
00000220: 8fec d6be 88b8 05be 9e6c d3be fc72 6b3d
00000230: d913 063e 0d47 b2be 8941 8b3e 70cd 023e
00000240: bf89 883d b70d 653e 214d fe3c dad8 23be
00000250: f6e1 4a3d 4fcf 05bf e456 6ebe 4319 16be
00000260: c6f5 a53e e219 5a3d 3ab4 b73d 2c12 c63d
00000270: be2c 713d db6f f1bd 5fc5 25bd 16d6 1ebe
00000280: 90fb 52bd 1b8b afbd 1a8f 223e 87d3 063d
00000290: b4e9 a93d 9ce6 babe 344f a8be 45ae 98be
000002a0: 9f01 06be 160e 063f 45b7 913d d56b 97bc
000002b0: a1dc cbbe 3f56 593e 81fb 79bd 0620 2f3e
000002c0: ea90 9b3e 1a7e 2a3e 9362 0f3f 0a6e 56bb
000002d0: 808b c13c 5408 ebbd 0834 8fbe b0cc d33d
000002e0: a889 03be a3cb e73d a3e9 02bf b62c 0fbe
000002f0: 5f24 3dbe 2fc7 fabe fc5a 1ebe a858 c6be
00000300: 76df fc3d a165 ecbe b876 be3c 59d2 163e
00000310: c399 103e e68f debd 8fce 85be 482e dabe
00000320: 04a7 f73e 2fa1 2fbe 34fc 5f3d 4918 253e
00000330: 7880 453e 3e34 c4be 8103 3a3e c144 29bc
00000340: 6fbb 6dbd 231c 2abe 64e3 c63e 1f91 73be
00000350: 1a6e 84be e885 b3bd 1b3c d5be 519c d53e
00000360: d175 b63c f399 f7bc 9b37 093e 8674 a43d
00000370: 9b4a 39be ec1a a1bc bec1 643e 413e 653e
00000380: 87a9 19be 350d 4a3e 5a9a 34be 14c2 123e
00000390: b7d8 0fba a52e 3dbf a693 93be 9c8e acbd
000003a0: db00 fe3e 5bc4 f9be 4909 663e 4120 f3bd
000003b0: ae73 4b3d de77 f6bd 1afd 52be b767 eebd
000003c0: 17aa b4be 0c1e 143c f6fb 683e 10f5 b73d
000003d0: 448e aebd 393b a4be f57e 2d3e a9ab 89be
000003e0: 5b67 2fbd a500 d53d 6766 b63d 9900 ba3e
000003f0: 2861 b0bb 6702 8fbe a464 a43d 0e26 f63e
-0.008643653 0.026802981 0.038328584 0.11612453 -0.4937301 -0.15368278 0.11156913 -0.34255317
0.09880841 -0.021429015 -0.023326699 -0.11816191 0.12910874 0.045735255 -0.0064392705 0.003606437
0.15821299 -0.42736796 -0.25451168 -0.2790333 0.06546159 0.021655958 -0.1768054 -0.2362467
-0.032936547 -0.30991971 -0.16391608 0.1142225 0.1626393 0.11393403 0.6139246 0.11289583
-0.3886009 -0.0789132 0.023096075 -0.14331518 0.47329202 0.0018689648 0.17500187 0.010902928
-0.33707383 -0.0004978285 0.15605101 -0.07576474 -0.53657216 0.12125189 0.014287815 0.25382465
0.07314533 -0.20225754 0.08921896 -0.14843455 -0.102275535 -0.14062999 -0.044889227 -0.008771509
0.044950135 -0.16708305 -0.08586557 0.13651282 0.25779244 -0.42846376 0.1380681 -0.22742257
0.14005686 0.04476702 -0.074193746 -0.23389284 0.19624072 -0.19303417 0.4637071 0.0033899832
0.13904853 -0.18953982 0.14339145 0.179515 0.3951574 0.036119737 0.16854893 -0.120727465
-0.17378558 -0.02933834 0.07602446 0.1619246 -0.14640613 -0.13591729 0.3659959 -0.2594168
-0.077417366 -0.0088909585 -0.27347896 -0.048421517 -0.21875162 -0.20716883 -0.132459 0.15342338
0.16600206 -0.19476053 -0.049334172 0.20184328 0.3873793 -0.3545202 0.34826463 -0.2738486
0.19178279 -0.16316305 -0.039230265 -0.43705592 -0.0111801475 -0.29405856 -0.0048664827 0.14568856
0.28221124 -0.3157828 -0.094089985 -0.16240442 -0.0104521215 -0.01281662 -0.42513934 0.009075051
0.25514647 -0.00961469 -0.20190965 -0.056154747 0.016255658 -0.34611824 0.15961444 0.2536636
0.22876187 -0.15412432 0.25118795 -0.39506507 0.0057518655 -0.0066640633 -0.16889128 0.24649908
-0.41977355 -0.13058674 -0.41293806 0.057482705 0.13093509 -0.34819832 0.27198437 0.1277368
0.06666898 0.22368513 0.031042637 -0.16000691 0.0495319 -0.5226945 -0.23275334 -0.14658074
0.32414073 0.05324734 0.08969922 0.09671435 0.05888056 -0.11788913 -0.04047143 -0.15511355
-0.05150944 -0.08571454 0.15874901 0.032916572 0.082965285 -0.36504066 -0.32872927 -0.29820457
-0.13086556 0.52365243 0.07115034 -0.018484036 -0.39816764 0.21224307 -0.06103087 0.1710206
0.30383998 0.16649666 0.5600979 -0.0032719397 0.02362609 -0.11476198 -0.27969384 0.103417754
-0.1284548 0.113181375 -0.5113775 -0.139819 -0.18470906 -0.4898009 -0.15464395 -0.38739514
0.12347309 -0.46171287 0.023249969 0.14728679 0.14121155 -0.1086729 -0.26134154 -0.42613435
0.4836961 -0.1715133 0.05468388 0.16122545 0.19287288 -0.38321108 0.18165399 -0.010331334
-0.05804008 -0.16612296 0.3884536 -0.23785828 -0.2586525 -0.08765775 -0.4164742 0.41720822
0.022272976 -0.030224776 0.13400118 0.080300376 -0.18094866 -0.019666158 0.22339532 0.22387029
-0.15006076 0.197316 -0.17637005 0.14331847 -0.000548731 -0.738993 -0.28823584 -0.08425638
0.49610028 -0.4878262 0.2246448 -0.11871386 0.049670868 -0.120345816 -0.20604363 -0.11640876
-0.35286018 0.009040367 0.22752365 0.08982289 -0.08523229 -0.32076433 0.16942962 -0.2688878
-0.042823177 0.104005136 0.089062504 0.3632858 -0.0053826757 -0.2793152 0.08027008 0.48075908

ExResModel/block11_conv2/separable_conv2d_bias f4 [40]
00000000: b079 ccbe 56d7 463f 0f1d 843f d46f 7cbf
00000010: 5445 4ebe 72c8 6b3f 75fe 1cbe 16d0 033f
00000020: c8dc 41bf 524e fe3e 6fa6 76bf cb05 01c0
00000030: 4bcc eb3e 0b56 333f 31ac cb3e e3be b53e
00000040: 76d4 dabe 42d2 09bf 8cfc 393e 6a96 acbd
00000050: ba57 a9bf 24ec c03c d404 08c0 dbec fc3e
00000060: 982d f73e f8d4 cabe 5086 bf3f e1cf ee3f
00000070: 9eef d0be d2dc 2a3f 3e19 2fbe ba86 dd3e
00000080: 5c4a cf3e ca5c 93be bf4d 573e 99a6 bf3e
00000090: a66e 363e fc01 0f3f e6cc 803f 6fc7 253f
-0.3993659 0.77672327 1.0321368 -0.98608136 -0.20143634 0.9210273 -0.15331443 0.5148939
-0.7572751 0.4966913 -0.9634771 -2.0159786 0.460543 0.70053166 0.3977981 0.35497198
-0.4274022 -0.5383645 0.18162745 -0.08427127 -1.3229897 0.0235501 -2.1252947 0.49399456
0.48276973 -0.39615607 1.4962864 1.865719 -0.40807813 0.66743195 -0.17099473 0.4326685
0.4048642 -0.2878173 0.21025752 0.3743179 0.17815647 0.558624 1.006253 0.64757437

ExResModel/block20_conv_residual0/Conv2D_bias f4 [60]
00000000: 0eb3 2ebf 1419 84bd 2dff 643f e2ae 193f
00000010: 6f7c a6be 52ed 2dbf 6476 b73d b62a 49bf
00000020: f420 20be 918e 593f 1013 76be ac42 ec3e
00000030: aa6a c4be 9e17 c2be b65d 5b3f 0c02 f5be
00000040: e874 283f 079c 3b3e 40aa 1abf e2bd 56be
00000050: bf26 52bf ba25 af3f aea0 d4be c464 a5bd
00000060: 9b68 5f3f 813c 143f 908c 923c b27c 983f
00000070: b110 4dbf 5271 4dbe f798 8cbe 3747 393f
00000080: cec3 9a3f 9655 b53e 9a64 08bf 102a 103f
00000090: 6e86 65bf ccb4 ba3e 6078 fc3e c4f8 87be
000000a0: 44ba 653e 3337 093f e1a7 2b3f 3578 bbbe
000000b0: c54c 563f ca04 90bd e625 86bf a4b2 d13c
000000c0: 164f f63e e309 83bf fefb a33f eaf2 873e
000000d0: 10b3 8d3f 56dd cf3e 12e6 913f 8eaf 663e
000000e0: ab14 653f 9cf4 aa3d d605 103f 71e9 a33f
-0.68241966 -0.06450096 0.8945187 0.60032475 -0.3251681 -0.6794025 0.08958128 -0.78580797
-0.1563757 0.84983164 -0.2403071 0.46144617 -0.38362628 -0.37908643 0.85689867 -0.47853124
0.65803385 0.18321238 -0.6041603 -0.20970872 -0.8209037 1.3683388 -0.4152884 -0.0807586
0.8726899 0.5790482 0.017889291 1.1913054 -0.80103594 -0.2006276 -0.27460453 0.7237429
1.2091005 0.3541686 -0.53278506 0.5631418 -0.8965825 0.36466062 0.4931059 -0.2655698
0.22434336 0.5359985 0.6705304 -0.36615148 0.8371089 -0.070321634 -1.0480316 0.025597878
0.48107213 -1.0237392 1.2811277 0.26552516 1.107027 0.40598553 1.1398337 0.22527906
0.8948466 0.08347437 0.56258905 1.2805616

ExResModel/block20_conv_residual1/Conv2D_bias f4 [60]
00000000: cc05 eebd 2c4a a73e 2411 7f3e 405a aabd
00000010: bd18 cabe 3bf5 9cbe 4a5b a23e 60f0 21be
00000020: f218 a23d e454 963c c48f 403e 60ff 7a3d
00000030: 02ca 7dbe 8c5d dc3e 1654 98be 0bb3 d4be
00000040: 6bd9 453e 807f 2f3b b44c 38bf 02e6 63be
00000050: b0c0 3fbe cc67 683e 104b 963c 2c3f a13e
00000060: d9ee 6ebe e91e c8bd ee83 2e3e d603 573e
00000070: 7572 e03e 1698 933e 091d a33e b4a4 e9be
00000080: 4c4d 133f 9aa8 d33e d8d1 56bc 78ed 393f
00000090: d030 fcbd aab6 afbd 8061 3ebf 6071 ad3c
000000a0: bc99 e13d f692 ea3d e8e0 013d 5d99 63bf
000000b0: ab57 1d3f 04e6 733e b009 26bf 27f7 b03e
000000c0: 7a63 81bd 388d bebd 580f 283f f7a8 d83d
000000d0: f838 dc3c fab5 353f 64a6 043f 5683 5c3e
000000e0: 898a 0a3e 43c4 ae3e f868 aebe b8ad 033e
-0.116221994 0.32673776 0.24908882 -0.08317995 -0.39472 -0.30655846 0.31710273 -0.15814352
0.07914914 0.018351026 0.18804842 0.0612787 -0.24784091 0.4304012 -0.29751652 -0.4154285
0.1932122 0.0026778877 -0.7199204 -0.2225571 -0.18725848 0.22695845 0.01834634 0.3149351
-0.233333 -0.09771521 0.17042515 0.20997557 0.43837324 0.2882697 0.3185809 -0.4563347
0.5753982 0.4133957 -0.013111554 0.72627974 -0.12313998 -0.08579762 -0.74367523 0.021172225
0.11015651 0.11453812 0.031708628 -0.8890589 0.61461896 0.23818213 -0.6485853 0.34563562
-0.06317802 -0.09304279 0.6564841 0.105791025 0.026882634 0.709808 0.5181639 0.21534476
0.1352941 0.3413411 -0.3406446 0.12859237

ExResModel/block20_noise_bn/FusedBatchNorm_add_param f4 [40]
00000000: 7767 5abf d498 9dbf 10a6 b5bf 18b6 11bf
00000010: 138e c6bf c5cd e6be 0649 b3bf 70cc 91bf
00000020: 7071 d5bc 21fa 5abf 3247 a9bf 270a a0bf
00000030: 786c a7be 0419 8cbf ca78 a2bf bb13 56bf
00000040: b5dd 41bf 288d 47bf df3e 4dbf e508 95be
00000050: 4fec 36bf 4bf2 85bf 2de8 88bf 7538 b1bf
00000060: f859 2e3d 9279 a9bf f1a0 babf b784 3abf
00000070: d0d1 adbf 721e c23d 1698 40bf 4e0c f2bf
00000080: f516 4bbf 1290 aabf 04c0 3dbf cd04 aabe
00000090: 9e64 a1bf 4223 5fbf 3cb2 91bf 9072 3bbf
-0.85314125 -1.2312264 -1.4191303 -0.5691848 -1.5512108 -0.45078865 -1.400666 -1.1390514
-0.026055068 -0.85537916 -1.3224852 -1.2503098 -0.32699943 -1.0945134 -1.2693112 -0.83623856
-0.75728923 -0.7794976 -0.8017406 -0.29108348 -0.7145433 -1.0464567 -1.0695854 -1.3845354
0.04256627 -1.3240225 -1.4580365 -0.72858757 -1.3579655 0.09478463 -0.75232065 -1.8910005
-0.79331905 -1.3325217 -0.7412112 -0.33206788 -1.2608831 -0.87163174 -1.1382518 -0.73221684

ExResModel/block20_noise_bn/FusedBatchNorm_mul_0_param f4 [40]
00000000: c12c 693f 2d8d 643f 7ef0 993f 9cd7 3d3f
00000010: 1586 8b3f 7b4a ca3f db02 8d3f 68a3 213f
00000020: 97fd 133f 211a 523f 7b8b 1e3f 6153 463f
00000030: 4834 353f 9164 953f 4e0b 9c3f 7fff 4f3f
00000040: ce91 583f d0eb 6a3f 2b87 7e3f 1b6f 313f
00000050: a76a 563f 40e1 023f a663 2a3f fda3 a13f
00000060: 837e 403f 0531 b43f 50a2 863f d697 483f
00000070: acc7 9d3f 12ab 483f 99a9 913f d914 9b3f
00000080: 6ccf 2a3f da91 2a3f d228 613f 44f1 5f3f
00000090: f603 883f 0c1c 4b3f 3743 353f eedc 833f
0.91083914 0.8927792 1.2026517 0.7415712 1.0900294 1.580398 1.1016496 0.63139963
0.5780882 0.8207112 0.6193158 0.77470976 0.707829 1.1671315 1.219095 0.8124923
0.8459748 0.9176607 0.99425 0.6931016 0.8375649 0.51124954 0.665583 1.262817
0.7519304 1.407746 1.0518284 0.78356683 1.232656 0.7838603 1.1379882 1.2115737
0.6672275 0.666288 0.8795291 0.8747752 1.0626209 0.7933967 0.70805687 1.0301797

ExResModel/block21_conv1/separable_conv2d/depthwise_bias f4 [40]
00000000: 0000 0000 0000 0000 0000 0000 0000 0000
00000010: 0000 0000 0000 0000 0000 0000 0000 0000
00000020: 0000 0000 0000 0000 0000 0000 0000 0000
00000030: 0000 0000 0000 0000 0000 0000 0000 0000
00000040: 0000 0000 0000 0000 0000 0000 0000 0000
00000050: 0000 0000 0000 0000 0000 0000 0000 0000
00000060: 0000 0000 0000 0000 0000 0000 0000 0000
00000070: 0000 0000 0000 0000 0000 0000 0000 0000
00000080: 0000 0000 0000 0000 0000 0000 0000 0000
00000090: 0000 0000 0000 0000 0000 0000 0000 0000
0.0 0.0 0.0 0.0 0.0 0.0 0.0 0.0
0.0 0.0 0.0 0.0 0.0 0.0 0.0 0.0
0.0 0.0 0.0 0.0 0.0 0.0 0.0 0.0
0.0 0.0 0.0 0.0 0.0 0.0 0.0 0.0
0.0 0.0 0.0 0.0 0.0 0.0 0.0 0.0

ExResModel/block21_conv1/separable_conv2d_bias f4 [60]
00000000: f6b9 91be c28c 25be d760 8cbe b895 363f
00000010: 90d5 b33c 70b0 ba3e acb1 e13d c414 7c3e
00000020: 7e91 7a3e 3049 a3be 6d19 013f 38ea 2ebe
00000030: 503d 7ebe 362f d43e 9cdb 023d 6686 e3be
00000040: f3c8 96be 842a 82be e7d8 243e 1aa9 b23d
00000050: bfc5 b5be c811 e0bd 900e 81be 1e6a 1a3c
00000060: afbf 7e3e 6c2e 6f3e 8443 7e3d 8d52 52be
00000070: 0875 5a3d 40b2 733d 3a38 86be f48c b93d
00000080: 57e5 613e 69f1 b1bd 9a66 213e 2e1f 9dbc
00000090: c351 f2be 45af eabe fbdb 343f af87 9cbe
000000a0: bf84 da3e 1c21 c7be 00fa 183f 147f f43d
000000b0: 74df 323e db5d f2be 40fb 4b3c f0a9 093f
000000c0: bf1f 70be 1252 b6be cd1f cbbe 91bb 07be
000000d0: 2086 0fbe 3c50 b23d bc8e c83e 12d9 c8bd
000000e0: 808e e8be a8c4 1e3f d898 a83e 842b cd3e
-0.2846219 -0.16166976 -0.27417633 0.713222 0.02195242 0.36462736 0.11020216 0.24617296
0.24469563 -0.31891775 0.5042942 -0.17081535 -0.24828076 0.4144227 0.031947717 -0.44438475
-0.29450187 -0.25423062 0.16098367 0.0872366 -0.3550243 -0.109408915 -0.25206423 0.009424714
0.24877809 0.23357552 0.062076107 -0.20539303 0.053334266 0.059496164 -0.26214772 0.09060088
0.22060142 -0.086886235 0.15761796 -0.019179907 -0.47328004 -0.45836845 0.70648164 -0.30572268
0.42679402 -0.38892448 0.5975647 0.11938301 0.17468053 -0.4733723 0.012450039 0.5377493
-0.2344961 -0.3560949 -0.396727 -0.13255145 -0.14016008 0.0870671 0.39171398 -0.09807028
-0.4542122 0.62018824 0.3292911 0.40072262

ExResModel/block21_conv1_act/Neg_neg f4 [8, 8, 60]
00000000: 982e 15be 45f7 b5bd f1e1 eebd cd02 eebd
00000010: b6da 9ebe 25fc 55bd 74cf 0d3f fa91 623d
00000020: 3e60 51be 12cb 863d bc61 463e 2d9e c0bd
00000030: 7659 a9bd 1276 a9bd 78e8 8d3d e2d7 8ebd
00000040: 568e 6f3b fd15 893e ede1 363e 3ca6 aebe
00000050: 9718 17be f0c4 71be 6b3c 83be 039c 9bbe
00000060: d37b ee3e 77be ad3d 41dc 66be 2288 c23e
00000070: 3e1b 99be 9bfc bbbd e86a f13b 8d24 843d
00000080: 1b3b 8bbd 02bf 91be dd26 ec3c 0068 a83e
00000090: f187 c8be e525 8bbe 3133 f83d 0785 8e3d
000000a0: 8fcb 5d3e 5b8a ad3d e87c 0dbd d137 c3bd
000000b0: 75b8 c2be 7b27 ddbe 5ad9 4b3e fa1a b0bb
000000c0: 978d 5bbd 2571 c2bd a585 89be 5464 89be
000000d0: 9138 4d3e 12ef 00be 3480 853d c2a0 7ebc
000000e0: ba86 033d 6801 68be 14ca 3cbe b930 d0bd
000000f0: a210 b53e baa1 4f3e 789d 9f3d fbb8 7b3e
00000100: 5ef8 87bd 7054 4bbe a65d 023e 95af e2bd
00000110: 4fdf f0ba 6d0b e2bd ebcd ea3e 98aa 02bf
00000120: 85ff 683d 2e15 563c 8590 9c3d 4795 cdbd
00000130: e55a 5a3d f654 e4bd cbe4 443d d4e8 a2bd
00000140: 0d7c 90be 7abd 9cbd 3954 2dbe 8d5d d8be
00000150: dae8 02be a924 a43e 6645 37bd a13b 293c
00000160: e962 85be 05a1 ce3d 63bc a4bd e68c 0a3e
00000170: 9c77 de3d 3301 9e3e 6703 273d 499c e0bd
00000180: 2828 f83c d640 42be a2b6 b9bd 40bc 833c
00000190: ef9e 8b3d 1bcc 93be 6590 ddbc 15fa e0bc
000001a0: 7bd7 9ebe 98a9 88be 02af a33e 28a1 a6bc
000001b0: 13c5 683c 2554 12bd 5882 ca3d 32c4 753e
000001c0: 4282 713e 5124 4f3d 43b3 c33b 4202 fcbd
000001d0: 4157 b33d f879 d4bc fa22 f33e bc65 28be
000001e0: 142b 823d 5545 843d 76e2 01bd c147 f5bd
000001f0: ad26 c63d 4359 c53d 8a94 323e 1bb5 86bc
00000200: 3cc5 c7bc eeb1 36be 9aa6 063f d165 6ebe
00000210: 3f7c cabd 0a24 7c3e fcaf 9d3e e3d1 febe
00000220: 65fe 15be ba32 efbc 1d94 e8bd 00ba 263e
00000230: 49b4 84bd 0337 273e e336 583e f4a5 ed3d
00000240: e56e 2dbd 7330 8fbc 19c6 2c3d eb6c 7c3e
00000250: f9e9 c53e 2d5f e1be ef14 6fbc 6513 ac3e
00000260: 9f13 91bd 88e1 e53e 1543 51be ef9f 0c3e
00000270: c38b 1dbf f132 9ebe 54ff 913c 9524 aebe
00000280: 4f23 bc3e d943 82be f8f8 3e3e 8da1 163e
00000290: c07a b4be 46f4 5cbe d9cc 91be 59c0 0e3e
000002a0: a7c6 36be dd16 fa3d 32c7 4f3d eb05 b33e
000002b0: 9ced a73d 9e0e b6be 027a 43be 0a48 1d3f
000002c0: cf2f 383d 55d7 ed3d 9d31 ac3e a34e 13bb
000002d0: c187 a9bc d002 e13d c688 7dbc 1c04 863d
000002e0: 396d 813d adf0 e9bb cb35 1f3e 1608 363f
000002f0: 7d15 cdbe c286 0a3f 101f bc3d 8d03 6abe
00000300: 9a42 f8be 39aa 863e c44a 24be e9c3 d63d
00000310: 43b9 12be f167 d93d f1a3 f0be 99dd 5d3e
00000320: 0ddf d7bc f7c0 d1be 2984 173f 3452 30bc
00000330: d1d7 1b3f 3e97 cf3e 0d2d 4c3e 4676 643e
00000340: 3f4e 253e 7a7c cb3e 618b f03c 601c 98bd
00000350: eb57 e4bb 3cde 83be e41b a23e 3aa8 29be
00000360: 39b2 b13c 5cd1 a7bb a2af af3e ee0f 22bf
00000370: 53f1 1a3d 912c 483e dd7c 88be 8ea1 91bb
00000380: 1a6a a0be 64a5 873e 2812 41be e8f2 4dbe
00000390: eb9c 67be cf44 f7be 3ffc 7bbe 00d3 013e
000003a0: f123 553e 66a9 54bd 0d5d 98bc 0e45 b7bd
000003b0: f1cf 883d 2fd5 a9be e5ca 813e b212 c83e
000003c0: 0587 b4be be2a 7bbe 0cce 113e 44ab 10be
000003d0: 532c 01bd aee7 e13d 309a 2ebe 9491 2c3f
000003e0: 42b4 6ebe 7c0c 26bd ace3 643d 0801 16be
000003f0: 5029 bcbe fe67 143b c6d8 59be 104e f43d
-0.14568555 -0.088850535 -0.11664189 -0.11621628 -0.31026238 -0.052242417 0.55394673 0.055314995
-0.2044687 0.06581701 0.1937322 -0.0940517 -0.082690164 -0.08274473 0.069291055 -0.0697477
0.0036553345 0.26774588 0.17859621 -0.34111202 -0.14755474 -0.23610282 -0.25632033 -0.30392465
0.46578845 0.08483594 -0.22544958 0.37994486 -0.29903597 -0.0917904 0.0073674805 0.06452284
-0.06798383 -0.2846604 0.028827125 0.32891846 -0.39166215 -0.2717735 0.12119139 0.06958967
0.21659683 0.08473655 -0.034542948 -0.095321305 -0.38031355 -0.43194184 0.19907132 -0.0053743096
-0.053601827 -0.09494237 -0.26859775 -0.26834357 0.2004111 -0.12591198 0.065185934 -0.015541257
0.032110907 -0.22656786 -0.18436462 -0.10165543 0.35364252 0.20276538 0.07793707 0.24582283
-0.06639169 -0.19856429 0.12731037 -0.11068646 -0.0018377098 -0.110373355 0.45860228 -0.51041555
0.056884307 0.013066573 0.076447524 -0.10038238 0.05330934 -0.111490175 0.048069756 -0.07954565
-0.28219643 -0.07653327 -0.1692666 -0.42258874 -0.12784138 0.3205922 -0.044743918 0.010329158
-0.26052025 0.10089306 -0.080437444 0.13530311 0.108626574 0.3086029 0.04077473 -0.10967309
0.030292585 -0.18970045 -0.090680376 0.016080976 0.068174236 -0.28866658 -0.027046392 -0.027462998
-0.31023774 -0.2669189 0.31969458 -0.020340517 0.014207142 -0.035724778 0.09888142 0.24000624
0.23584846 0.050571743 0.0059722974 -0.12305118 0.08756877 -0.025937065 0.47487622 -0.16445059
0.06355873 0.064585365 -0.03171011 -0.119765766 0.096753456 0.09636166 0.17439476 -0.01644378
-0.02438604 -0.17841312 0.52597964 -0.23281027 -0.09886979 0.24623123 0.30798328 -0.49769506
-0.14647825 -0.029198993 -0.11356375 0.16281891 -0.06479699 0.16329579 0.21114688 0.11603919
-0.042342085 -0.017479157 0.04218111 0.24650924 0.3865507 -0.44017926 -0.014592393 0.33608547
-0.070838206 0.4489863 -0.20435746 0.13732885 -0.61541384 -0.3089824 0.017821945 -0.34012285
0.36745688 -0.2544239 0.18649662 0.14710064 -0.352499 -0.21577558 -0.284766 0.13940562
-0.17849217 0.12211392 0.050727077 0.34965453 0.08199617 -0.35558027 -0.19089511 0.6143805
0.04496747 0.11613337 0.33631602 -0.002247729 -0.020694615 0.109868646 -0.015474504 0.065437526
0.06319661 -0.0071392865 0.15547864 0.7110609 -0.40055457 0.54111874 0.09185612 -0.22852917
-0.48488313 0.26301745 -0.16044146 0.10486586 -0.14328484 0.106155284 -0.47000077 0.21666564
-0.026351476 -0.40967533 0.59186035 -0.010761786 0.60876185 0.40545076 0.1993906 0.22310743
0.1614313 0.39743406 0.029363336 -0.07427287 -0.0069684885 -0.2575549 0.31661904 -0.1656808
0.021691428 -0.005121393 0.34313685 -0.63305557 0.0378278 0.1954825 -0.26657763 -0.0044443076
-0.3133095 0.2649337 -0.18854582 -0.20112193 -0.22618453 -0.48294684 -0.24607943 0.12678146
0.20814492 -0.051919363 -0.018599058 -0.08948718 0.06680287 -0.3317046 0.2535011 0.39076763
-0.35259262 -0.24528024 0.14238757 -0.14127833 -0.03153641 0.110305175 -0.17051005 0.67409635
-0.2331095 -0.04053925 0.055881187 -0.14648831 -0.3675027 0.0022644992 -0.21274099 0.11928952

ExResModel/block21_conv2/separable_conv2d/depthwise_bias f4 [60]
00000000: 0000 0000 0000 0000 0000 0000 0000 0000
00000010: 0000 0000 0000 0000 0000 0000 0000 0000
00000020: 0000 0000 0000 0000 0000 0000 0000 0000
00000030: 0000 0000 0000 0000 0000 0000 0000 0000
00000040: 0000 0000 0000 0000 0000 0000 0000 0000
00000050: 0000 0000 0000 0000 0000 0000 0000 0000
00000060: 0000 0000 0000 0000 0000 0000 0000 0000
00000070: 0000 0000 0000 0000 0000 0000 0000 0000
00000080: 0000 0000 0000 0000 0000 0000 0000 0000
00000090: 0000 0000 0000 0000 0000 0000 0000 0000
000000a0: 0000 0000 0000 0000 0000 0000 0000 0000
000000b0: 0000 0000 0000 0000 0000 0000 0000 0000
000000c0: 0000 0000 0000 0000 0000 0000 0000 0000
000000d0: 0000 0000 0000 0000 0000 0000 0000 0000
000000e0: 0000 0000 0000 0000 0000 0000 0000 0000
0.0 0.0 0.0 0.0 0.0 0.0 0.0 0.0
0.0 0.0 0.0 0.0 0.0 0.0 0.0 0.0
0.0 0.0 0.0 0.0 0.0 0.0 0.0 0.0
0.0 0.0 0.0 0.0 0.0 0.0 0.0 0.0
0.0 0.0 0.0 0.0 0.0 0.0 0.0 0.0
0.0 0.0 0.0 0.0 0.0 0.0 0.0 0.0
0.0 0.0 0.0 0.0 0.0 0.0 0.0 0.0
0.0 0.0 0.0 0.0

ExResModel/block21_conv2/separable_conv2d_bias f4 [60]
00000000: 8461 24bf c6d2 0d3f 6035 a63c 57bf 23bf
00000010: 8431 32bf 16f5 803f da8e d6bf 9073 183f
00000020: 2352 05be 1871 a4be c54a f73f 071a 82bf
00000030: 96dc 863f bca4 823f a2d3 533f dc93 523e
00000040: 1ed4 efbe 436e d8be 9c03 84bf 3464 d73e
00000050: 255b 993e 5c26 393e 30f0 853f 795e 8ebf
00000060: 0c5f 60be 5c85 533e 11df a83e e0a9 bdbe
00000070: 94ed 59be 1057 31bf cc9b 47bf f9a7 c4be
00000080: b483 a23e 4e9a 2cbf dd6e 4f3f ab75 44bf
00000090: 544e 83bf ec60 dbbf 2b14 8d3f e750 94bf
000000a0: 1ec0 0c3f f7cf 55be 6e14 bb3f 48ed 893c
000000b0: c094 433d df9c bb3e f69c 953f 1c5e 143e
000000c0: 02a0 183f 7a60 0fbe 87ad 8cbf 51e2 403f
000000d0: 7057 733f f285 893e 178a 863f 580c 63be
000000e0: fb7a ebbd 8e73 463e bc74 a43f 24e3 2bbe
-0.642113 0.5539974 0.020289123 -0.63963836 -0.69606805 1.0074794 -1.6762345 0.59551334
-0.13019614 -0.32117534 1.9319693 -1.0164193 1.0536067 1.0206523 0.827448 0.20564216
-0.4684152 -0.42271623 -1.0313601 0.42068636 0.2995235 0.18081039 1.0463924 -1.1122581
-0.21911258 0.20656341 0.32982686 -0.37043667 -0.21282035 -0.6927347 -0.779721 -0.38409403
0.31741107 -0.6742295 0.8102854 -0.7674205 -1.0258279 -1.7138953 1.102178 -1.158719
0.5498065 -0.20880114 1.461561 0.016836777 0.04774928 0.3664312 1.1688526 0.14489025
0.5961915 -0.14001647 -1.0990456 0.7534533 0.95055294 0.26860005 1.0510892 -0.22172678
-0.11498066 0.19380018 1.2848125 -0.16785866

ExResModel/block30_conv_residual0/Conv2D_bias f4 [90]
00000000: 4273 08be b00e 09bd 3134 a3be d7f3 acbd
00000010: 5888 e03e 23bd 84be c88c 92be 21bd 133f
00000020: 6174 b53b ec10 c23e 2687 abbe db7b 4d3f
00000030: ad17 5fbe 2682 bfbd bbb6 94bd 75ae ff3d
00000040: a750 303f eaef 64be a665 05bd 46a3 3dbc
00000050: d09e 8ebe 0394 84be f879 4a3e 2829 67be
00000060: 0ed0 c9bd 5bfb 273d d195 28be 7a8f 333e
00000070: 377a 6b3e 7868 1a3f 3267 a5bd 5fdd c9bd
00000080: 6a3e 9a3d 48c1 873d d98b bd3e 55bd bcbe
00000090: 8cb3 8e3e cecc a2bd b47c 733e 5654 5d3e
000000a0: cb75 47be 965a 5b3e a13c f6be de9b d2bd
000000b0: 965e cabd 0789 42be d6f3 65be 1097 a7be
000000c0: bfb6 ce3e c77b 663d f494 3bbe a789 0e3e
000000d0: bb53 c43b 5565 d53e 6e73 fd3e 541c 043f
000000e0: ac1b 80bd de2c 0d3f ece7 4e3d 0bbf 3b3e
000000f0: 25c3 b33d af71 673d 28c4 b7bd ce3c 95be
00000100: e6fb db3e 6c27 c8bd 21b5 babe aea6 543d
00000110: de12 b4bc 09c1 92be 75ab cebc cb94 e3be
00000120: 3f1c 9b3e 648c 103e ca50 edbd aefc ac3e
00000130: 6842 f1bb 2877 233e 301a e53e bad8 c93d
00000140: 7369 c3bd fc91 0abe 2a8d 01bf 50f5 a1bd
00000150: 81f4 1cbe 33b3 e5be f207 a0be 02bf c2bc
00000160: 5169 203f 2909 91bc
-0.13325217 -0.033461273 -0.31875756 -0.08444946 0.43854022 -0.2592555 -0.28623033 0.5771046
0.005537555 0.37903535 -0.33501548 0.80267113 -0.21786375 -0.09350996 -0.072614156 0.12484447
0.68873066 -0.22357145 -0.032567643 -0.011574572 -0.2785554 -0.25894174 0.1977309 -0.22574294
-0.098541364 0.041011196 -0.164634 0.175352 0.2299584 0.60315657 -0.080763236 -0.09856676
0.07531436 0.06628662 0.37020758 -0.368632 0.27871358 -0.0794922 0.23778039 0.21614203
-0.19478528 0.21421275 -0.4809313 -0.102836356 -0.09881322 -0.18997584 -0.22456297 -0.3273244
0.403738 0.056270387 -0.1831854 0.13919698 0.0059914268 0.41678873 0.49502128 0.51605725
-0.06255278 0.55146587 0.050514147 0.18334596 0.08777455 0.0565049 -0.08972961 -0.29147953
0.4296562 -0.09773144 -0.36466315 0.05191677 -0.021981653 -0.286629 -0.025228241 -0.44449458
0.30294988 0.14116055 -0.11587675 0.3378653 -0.0073626526 0.15963423 0.44746542 0.098557904
-0.09541597 -0.13532251 -0.50606024 -0.07908118 -0.15327646 -0.4486328 -0.31256062 -0.02377272
0.626607 -0.017704563

ExResModel/block30_conv_residual1/Conv2D_bias f4 [90]
00000000: 1194 d0be 5619 94be c1e7 e33d a106 96be
00000010: 49de 033f fb6a bbbe c2d7 4e3d db04 1c3f
00000020: 07d4 fd3d 96e6 5d3e 8858 8f3e e501 223f
00000030: 7737 62be 9c8a a23e 71af d8be 236c 1a3f
00000040: 46ac 0f3f 4983 b7be 767e 463e 0e22 2fbd
00000050: 365f 2ebe 1115 80be ec06 233c fe91 4cbe
00000060: 497a 9dbe e566 e9be 56a1 5a3e d489 d33e
00000070: b359 95be 6d96 ea3c b717 f2be 0ad9 b2bc
00000080: 9ccc bc3c 0295 a73c 4a24 31be 3f41 513e
00000090: 59d9 80be 82f5 6b3e 6832 bfbe ccf0 4cbe
000000a0: bf60 073f 4c1c ca3d 2ffe bfbd 79c1 8fbe
000000b0: a3a2 41be abd7 433e d1cb 663e 74c8 8bbe
000000c0: e5d5 ba3e eefb 53bd ec38 debe 89a5 acbe
000000d0: 8e2f eebe 3b78 0e3f 5b12 69be bd24 133f
000000e0: 4e3e b6be b859 e13e 33a7 683c d29d ad3e
000000f0: 19cc 82be d196 92be 9496 e2bb 7720 c8be
00000100: 4ef5 c03e c213 14be 2da9 afbe e526 a93d
00000110: 49bb b2be 7470 d1be 02f8 9c3e 39bc 8abd
00000120: 787b 0dbe 1311 cbbe bba6 8a3e 8da7 01be
00000130: 197e c5be 8b4a 91be ab5b adbe 08bc 9ebe
00000140: 2ab4 ca3e bf96 e63e 1a0e 4a3e 4c47 b5be
00000150: 667d a0bd 6f0c 45be 1b71 743d 47b4 f9be
00000160: 52ef df3e cd20 ed3d
-0.40737966 -0.2892558 0.11128188 -0.29301932 0.51511055 -0.36605057 0.05049873 0.6094491
0.12393957 0.21669993 0.2799723 0.6328414 -0.2209147 0.31746376 -0.4232135 0.60321254
0.56122243 -0.3584235 0.19384179 -0.042757086 -0.17028508 -0.25016072 0.009950381 -0.19977567
-0.3075736 -0.45586315 0.21350607 0.41316092 -0.29169998 0.028636182 -0.47283718 -0.021832008
0.023046784 0.020456795 -0.17299 0.20435046 -0.25165823 0.23042873 -0.37343144 -0.20013732
0.52882 0.098686785 -0.093746535 -0.28077295 -0.18909697 0.1912524 0.22538687 -0.2730137
0.36491314 -0.05175393 -0.43402803 -0.33720043 -0.46520656 0.5565221 -0.22760908 0.57477933
-0.3559441 0.44013762 0.01420002 0.3390947 -0.2554634 -0.2863069 -0.006914923 -0.3908727
0.37687153 -0.14460662 -0.34308758 0.08259372 -0.34908512 -0.40906107 0.30657965 -0.06774182
-0.13816631 -0.39661464 0.2708033 -0.12661572 -0.38572767 -0.28377184 -0.33859 -0.3100283
0.3959058 0.45036885 0.19731942 -0.35405958 -0.07836418 -0.19243024 0.05967818 -0.48770353
0.43737274 0.11578522

ExResModel/block30_noise_bn/FusedBatchNorm_add_param f4 [60]
00000000: 764a 26bf 99e2 6abf d6d1 65bf a441 c4bd
00000010: 59e6 81bd c802 86be b2d7 34bf 652b f6be
00000020: 7046 35bf c317 6dbf b9d5 cfbf ad5c c2bf
00000030: c7f3 60bf f697 8abf 05d9 b5bf 07b0 ae3e
00000040: 161b c2bf 643a 6ebf 0dac d3bd 6a39 d3bd
00000050: b836 8ebf d22b c9bf 5b44 aabe 10bd bebe
00000060: deec 3dbf 6b0e 67bf 7ce4 edbe 4a58 b3bf
00000070: 4994 1dbf d060 04bf 31b5 42bf f4bd dcbe
00000080: b9bd dcbf c57a 03bf 143f 30bf a65a 4ebf
00000090: 4507 12bf 4110 b2be 755b febe 8220 b9be
000000a0: 82ee a6bf 4e4a c3be 46a8 c5bf d4c0 1a3d
000000b0: 3427 c5bf 3ea8 42bf d001 aebd 5b46 dabe
000000c0: 9f70 89bf 7288 fbbe cc13 fabf da8c 91bf
000000d0: 0613 d6bf 2c1c 2ebf 3068 febf 0f7a 9cbf
000000e0: 982a b2bf 9871 6bbf 025d 5cbf 8ec3 17bf
-0.6495737 -0.9175201 -0.8977331 -0.095828325 -0.063427635 -0.26173997 -0.70641625 -0.48079982
-0.70810604 -0.9261438 -1.6237098 -1.5184532 -0.87871975 -1.0827625 -1.4206854 0.34118673
-1.5164516 -0.9305785 -0.103355505 -0.10313685 -1.1110449 -1.5716498 -0.33255276 -0.37253618
-0.74189556 -0.90256375 -0.46463382 -1.4011319 -0.6155439 -0.51710224 -0.76057726 -0.43113673
-1.7245399 -0.51359206 -0.6884625 -0.8060707 -0.5704234 -0.34778026 -0.4967915 -0.36157614
-1.3041537 -0.38142627 -1.5441978 0.03778155 -1.5402589 -0.7603797 -0.084964395 -0.42631802
-1.0737494 -0.49127537 -1.9537292 -1.137111 -1.6724555 -0.68011737 -1.9875546 -1.2224749
-1.3919249 -0.91970205 -0.8607942 -0.5928277

ExResModel/block30_noise_bn/FusedBatchNorm_mul_0_param f4 [60]
00000000: 841b ca3f 101d 573f 6e74 8f3f 16a8 923e
00000010: 9697 913f 11c3 2f3f 9b79 8b3f b3b2 703f
00000020: 6a0a 6e3f 8de1 eb3f 55b9 553f 9c0e df3f
00000030: 5d6d c63f 0657 323f 03dd a53f b671 8f3f
00000040: edb7 473f f34c a13f 8efc 6b3f 1efb a13f
00000050: c6de d23f 9171 613f 0348 6c3f c403 9a3e
00000060: dcbd 853f afbd 5f3f 8e45 a73f 0d20 9f3f
00000070: 35ba 703f ee1e ab3f aff3 113f 84f8 b63f
00000080: da85 983f 6a92 333f aa46 203f 09dd 723f
00000090: 8cee 3b3f ab1d f03e 3604 8c3f 4b1e 6f3f
000000a0: 92b9 953f 23a7 803f a291 893f fd21 823f
000000b0: d477 733f e85f 483f 6a73 a33f d3cc 7f3f
000000c0: 3476 8a3f 3fb8 093f 96e3 a33f bb5b 253f
000000d0: 3901 c93f 0aba 383f 4cb6 993f 8d4a 7c3f
000000e0: ac4e 743f dc4f 503f 0f4c 913f 0ad5 7a3f
1.5789647 0.8402872 1.1207407 0.28643864 1.1374385 0.6865702 1.0896486 0.94022673
0.9298464 1.8428208 0.8348592 1.7426333 1.5502125 0.6966404 1.2958072 1.1206577
0.78015023 1.2601608 0.9218224 1.265476 1.6474235 0.88063914 0.9229738 0.30080998
1.0448565 0.8739881 1.3068101 1.2431656 0.9403413 1.3368814 0.57012457 1.4294591
1.1915848 0.70145285 0.62607825 0.9486852 0.7341087 0.46897635 1.0938785 0.934056
1.1697257 1.0051006 1.0747569 1.0166622 0.9510472 0.7827134 1.2769597 0.9992191
1.0817323 0.5379676 1.2803829 0.64593095 1.5703498 0.72158873 1.2008758 0.98551255
0.95432544 0.81371856 1.1351336 0.9798132

ExResModel/block31_conv1/separable_conv2d_bias f4 [90]
00000000: 680c 463e b0f1 dabd b43e 013e c7b6 823e
00000010: b046 cf3e 74b8 9b3e 9e4e 223f 376c 32be
00000020: 9d4b 6e3e 9ac3 96be bebd 74be 90af 923e
00000030: 70b6 d9bd c607 f6be f59a 813d 7a3e 2b3f
00000040: c0b5 533c 1230 dabe be53 b1be ba95 c3bd
00000050: 6125 2cbe 5660 af3d 9cf5 d63d 613c 75be
00000060: 28d8 9e3d 6f95 563e 009c edba b8b8 4a3e
00000070: 14cd 463d 6aab 5dbe 9667 c53e 039e ae3c
00000080: 20a1 953e 3008 f0bb 605c 213d cace 7d3d
00000090: 96f9 053f af0e 733e b266 793d fcd1 013d
000000a0: 5deb b23d 50b0 59bb 2368 dd3e c209 f7bd
000000b0: 1b28 e43d bf98 6ebe f21e 853e a15a 883d
000000c0: 835e 8abd e4d3 1a3e 4ed7 8b3e 8692 873d
000000d0: 7a9b ca3e 0a4f 8f3e f329 f9bd 7e90 fd3d
000000e0: 4889 a5be d6f7 7d3e d58c 84bd 054f 0dbe
000000f0: bd91 acbd eeb7 b63e 0d54 7f3d 2e2b a03e
00000100: 7d52 4bbe 119f 0dbe bd6b b9be f647 e13d
00000110: 4af0 b1be ac38 39bf 52c1 a6be 003c 2c39
00000120: 4460 983d b3dd 393d 463f 013e 1359 f2bd
00000130: ee27 3abe 686e 4cbe 9310 763e 6a20 eb3e
00000140: f075 7abe 00bf 15be 543a 143d c4dd 613d
00000150: 88b4 c53d 1dab 263e 4181 52be db9a a5bd
00000160: ddbd 553e 6e9c ec3e
0.1934067 -0.106906295 0.12621576 0.25530073 0.40483618 0.30414164 0.6340121 -0.17424093
0.23271032 -0.29446107 -0.23900506 0.2864957 -0.106305 -0.48052806 0.06328384 0.66892207
0.012921751 -0.426148 -0.34634203 -0.095500425 -0.16811134 0.085632965 0.10496065 -0.23948814
0.07756072 0.20955442 -0.0018128157 0.19797027 0.04853542 -0.2164742 0.38555592 0.02131558
0.2922449 -0.007325195 0.039394736 0.061964788 0.5233396 0.2373607 0.060888954 0.031694397
0.08736298 -0.0033216663 0.43243513 -0.12062408 0.11140462 -0.23300456 0.26000172 0.06657911
-0.06756308 0.15119892 0.27312702 0.06619744 0.39571744 0.2798999 -0.12166204 0.12381075
-0.323313 0.24801573 -0.06472174 -0.13799675 -0.08426235 0.35687202 0.062336016 0.31282943
-0.19855686 -0.1383021 -0.3621501 0.110000536 -0.34753639 -0.723521 -0.32569367 0.0001642555
0.07440236 0.045377444 0.12621793 -0.11833396 -0.18179294 -0.19963992 0.2402976 0.45923167
-0.24459052 -0.14623642 0.03618844 0.055143133 0.09653574 0.16276212 -0.20557119 -0.08086177
0.20873208 0.46213096

ExResModel/block31_conv1_act/Neg_neg f4 [5, 5, 90]
00000000: 8b66 3b3e 5345 8bbe b11e 383e f0a7 603e
00000010: 3e5f 84be 059b 29bf 7a59 14be 65cd 1c3e
00000020: c317 633e 2912 33be e53c a7be 560b 033d
00000030: e243 0f3d fb75 6abe 6375 eebd 0052 913d
00000040: 753a 37be fddc 47bd f867 56be f6ee 113e
00000050: 199e ae3d 2d41 c63d 5880 873d 3a16 c93e
00000060: ff8c 86be 23c0 a83d 6b20 cd3d cb9b 2dbd
00000070: 7bb8 983d 5f79 013d 1cb5 b13e d295 98be
00000080: d2d4 4bbe 57f6 28be 890f a0be 7da4 48be
00000090: 7cc3 8a3e 0394 033e eea2 eebd 7296 f8bd
000000a0: 9c4b a63e 2921 163e 2c7f b53e 6634 abbe
000000b0: b4e5 0abe 5dcb 0abe 6b3f 77be 9c0a 3dbe
000000c0: 300f 423e 37a7 903d c386 743e aa05 8dbe
000000d0: 7002 a1bd 55b8 edbd 7b01 053e 68a3 323e
000000e0: 6181 763e 49d2 453e 70ab 1ebe a3d1 23be
000000f0: 4034 b23e 59fc f8be 68aa a53e 2a90 43be
00000100: 8c52 bbba a4da 0e3e c956 bf3e 5e69 9abe
00000110: e656 f1bd 9ea6 4c3e b403 1fbe 273b 04bf
00000120: 82aa 10bd 3b2a de3e cb19 03be 3e71 07be
00000130: 3a48 bcbd 6175 ce3d 65b7 55bb 5eee bc3d
00000140: d8d7 1ebe c986 553e 6b79 00bd f29c fa3e
00000150: 7818 033e 3f31 13be b0f1 df3d 4665 6abc
00000160: e483 babd b1d3 0e3e ed43 dc3d 9034 c6be
00000170: fc3d 36bd fe57 87be 8fc2 883e e945 ee3e
00000180: 56bc b3be df5e 643e a508 6bbd 3a85 70bc
00000190: 5407 f1bc ee68 4d3e 4013 313e 7192 1fbe
000001a0: e9d1 8c3e dc78 e4bd 0f5a 7a3e 2b00 123f
000001b0: a541 8cbe 6e4d 92be 8347 9e3e f6e0 3f3d
000001c0: 856e 9f3d a6e4 d6be e845 083e 12ef 0d3e
000001d0: 2b3f 0fbe efe2 0ebf b0bd d3bd c30e 59be
000001e0: f894 2cbd 7956 04bf 2d85 043e 05ad e93d
000001f0: 616f 19be 9255 ddbe fd88 913d fa76 c1bd
00000200: 1360 853e 6822 2a3e 24b9 763e 0770 2cbe
00000210: aff5 2a3f 23d7 89be 1913 94bd 392c 6c3d
00000220: 7993 be3e ee39 223d 421d 3e3d 1842 ca3e
00000230: 1400 b83e 7640 1abf 7c6e 64be 785e 7ebe
00000240: 00ab acbd 8227 efbe 9415 92be ed57 d8be
00000250: ad52 69be 44af d0be 7d42 5bbe 4d8e 0fbe
00000260: c049 4f3e e17b 253f 0215 f53d 991a 563d
00000270: b754 1f3e aa05 6bbe 7111 343e 369f 7a3e
00000280: ecd8 febb 9249 1fbe e00f 8ebd 5397 babd
00000290: 29b2 b8be 088b 2cbe e8ae 2e3f eb50 683e
000002a0: 0ac5 2ebb 7bb5 68be 2d6d c8be 759a 97bb
000002b0: 330a 79bb 6100 1cbc d515 883d 03de 063f
000002c0: e059 f2bd d2dd 723d d303 c83e 27dc bcbe
000002d0: 04e4 9bbe 4d01 b03e a016 f9bd 63c5 6bbe
000002e0: a939 bd3e 79b8 d33e 65ef bebe 2b36 24be
000002f0: c1b1 07be 60f5 92be 6a68 a43d 6718 c83e
00000300: 43d5 63bd 2030 58bd 4fd5 d8be 399d b73e
00000310: e1ea 013f 28ef a3be 0dc7 aa3e 8ee7 4cbd
00000320: c538 013f a92e 1a3e d556 0bbe c32e d23e
00000330: 46a7 2e3d 3227 86bd 87c2 e73c d831 0d3f
00000340: 92eb 0b3e b1e7 003f 2970 bfbd 8c08 62be
00000350: 7c99 3cbe 484a 89be fc52 8e3e 2763 98bc
00000360: 5455 273e 4b3b a53d e266 713e 20ce debd
00000370: a361 be3d e413 5bbd 86b5 353f cfe2 5fbd
00000380: eb78 bc3e a7e2 d3be 46f1 a43e 9f7e 5bbe
00000390: c9be 843d 9de4 a53c eb09 bfbb 8fce fbbe
000003a0: e817 84bd 2a9c 78be b2c9 e8be 0229 eebd
000003b0: f3bb 803e f0f8 493f c249 ad3e eceb b03e
000003c0: 16eb 793c c239 17bf 3203 56be a7ac 173f
000003d0: 950c b43e d8f1 00be 5a69 02bf 5edf a43d
000003e0: c56c 883f 8635 8a3d a9c8 48be 94dc 013f
000003f0: 42ab 89bd d7ae a83d c989 283d 2694 a83e
0.18300836 -0.27201328 0.17980458 0.21939063 -0.25853914 -0.66252166 -0.14487258 0.15312727
0.22177033 -0.17487396 -0.32663646 0.031993233 0.034976847 -0.22896568 -0.116434835 0.070957184
-0.17893393 -0.048794735 -0.20938098 0.14251313 0.085262485 0.096804 0.066162765 0.3927477
-0.26279446 0.08239772 0.10015949 -0.042384904 0.07457062 0.03160989 0.34708488 -0.29801804
-0.19905403 -0.16500221 -0.31261852 -0.19593997 0.27102268 0.1284943 -0.1165217 -0.1213807
0.3247956 0.14661087 0.35448587 -0.33438414 -0.13564187 -0.1355414 -0.24145286 -0.18461078
0.18951106 0.07063144 0.23879533 -0.27543384 -0.07861793 -0.11607424 0.12988846 0.17445147
0.24072792 0.19318499 -0.15495086 -0.15997939 0.3480549 -0.48630026 0.32356572 -0.19097963
-0.0014291569 0.13950592 0.373709 -0.30158514 -0.11784153 0.19985434 -0.15528756 -0.5165276
-0.03531886 0.43391594 -0.12802808 -0.13226792 -0.091934636 0.10080982 -0.0032610532 0.092251524
-0.15512025 0.20852198 -0.031365793 0.48947865 0.12802303 -0.14374255 0.1093477 -0.014306372
-0.091071874 0.13947941 0.10755143 -0.38711977 -0.044492707 -0.2643432 0.26710936 0.46537712
-0.35104626 0.22301815 -0.05738129 -0.014680201 -0.02942244 0.20059559 0.172925 -0.15583207
0.275039 -0.111558646 0.24448417 0.57031506 -0.27393833 -0.285747 0.30913934 0.0468454
0.07784752 -0.4197132 0.13307917 0.1386073 -0.1398894 -0.55815023 -0.103389144 -0.21197037
-0.042134255 -0.51694447 0.12941428 0.11409954 -0.14983894 -0.43229347 0.071062066 -0.09446521
0.2604986 0.16614687 0.24094063 -0.1683961 0.66781133 -0.2692195 -0.07230205 0.05765936
0.37221888 0.039606027 0.04641462 0.3950355 0.3593756 -0.6025461 -0.22307771 -0.24840724
-0.08431053 -0.4670983 -0.28532088 -0.42254582 -0.22785445 -0.40758717 -0.21412082 -0.14019127
0.20242977 0.6464215 0.119668975 0.05227146 0.1555966 -0.2295138 0.17584778 0.24474797
-0.007777324 -0.15555409 -0.06936622 -0.09110894 -0.36073425 -0.16849911 0.68235636 0.22687118
-0.0026667737 -0.2272548 -0.39145795 -0.004626567 -0.0038000464 -0.009521575 0.06644789 0.52682513
-0.118335485 0.059293576 0.39065418 -0.36886713 -0.304474 0.34375992 -0.121625185 -0.23024516
0.36958054 0.4135168 -0.3729202 -0.16036288 -0.13251401 -0.2870283 0.08027728 0.39081118
-0.055623304 -0.05278027 -0.42350242 0.3586214 0.5074902 -0.320184 0.3335499 -0.050025515
0.5047725 0.15056862 -0.13607343 0.410513 0.042639993 -0.06550445 0.028291 0.5515418
0.13664082 0.50353533 -0.09347565 -0.22073573 -0.18417925 -0.26814485 0.27797687 -0.018601967
0.16341144 0.0806795 0.23574403 -0.10879159 0.092959665 -0.053485766 0.7098011 -0.05465966
0.36811003 -0.4138386 0.32215327 -0.21435021 0.06481702 0.020250613 -0.0058300397 -0.4918103
-0.06449872 -0.24278322 -0.4546638 -0.11628915 0.25143394 0.78895473 0.33845335 0.34554994
0.015253803 -0.59072506 -0.20899656 0.5924782 0.3516585 -0.12592256 -0.50942004 0.080504164
1.0658194 0.0674849 -0.19607796 0.507272 -0.06722118 0.08236473 0.041147027 0.32925528
